overcooked_ai_pcg/GAN_training/data/training/netG_epoch_49999_999_small.pth (torch_old, 824854 bytes, 11 tensors)

main.initial:32-128:convt.weight f4 [32, 128, 4, 4]
0	0x3c15c044	0.009140078
1	0xbc332cb4	-0.010935951
2	0x3c82b671	0.015956135
3	0xbbe59e1e	-0.0070073744
4	0xbc9d5f27	-0.019210411
5	0xbd164447	-0.036686208
6	0xbcc0a8d5	-0.023518005
7	0x3ab8206e	0.0014047751
8	0x3b9173ff	0.0044388766
9	0xbc1acc39	-0.009448105
10	0xbc961f9e	-0.018325623
11	0xbb60d2be	-0.00343053
12	0xbbd78556	-0.006577174
13	0xbb9dd6ba	-0.004816857
14	0x3be79daa	0.0070683556
15	0xbb05c744	-0.002041296
16	0x3c4f4bbc	0.012652334
17	0x3d623056	0.055221878
18	0x3d36f54b	0.044667523
19	0xb9441b2e	-0.00018702142
20	0xbcc0e2de	-0.023545679
21	0xbc9a8500	-0.018862247
22	0x3bbdf567	0.0057970765
23	0xbc42b907	-0.011884934
24	0x3a1cfb97	0.00059884175
25	0x3c258a93	0.010103839
26	0xbc199d3c	-0.0093758665
27	0x3bce1d36	0.0062901033
28	0xbca7653c	-0.020434014
29	0xbb3e254a	-0.0029013925
30	0x3c36767a	0.011136645
31	0x3c982b0f	0.01857522
32	0x3ad95343	0.00165806
33	0xbb249f2a	-0.0025119283
34	0xbd22b81d	-0.039726365
35	0xbc2c7ccd	-0.010527802
36	0xbcc2254a	-0.023699421
37	0xbc8428d0	-0.016132742
38	0x3cae624c	0.021287106
39	0x3b29a804	0.0025887499
40	0x3d6a5a10	0.057214797
41	0x3ce6c495	0.02816991
42	0xbc6208f9	-0.013796085
43	0x3ad1ae33	0.001599735
44	0xbb284810	-0.0025677718
45	0x3a3242f0	0.00068001356
46	0x3bf90f74	0.007600719
47	0x3b72f288	0.003707083
48	0x3ccb5727	0.02482183
49	0xbcbe5cd0	-0.023237616
50	0x3ba8ca0d	0.0051510395
51	0xba0b93a3	-0.0005324429
52	0x3c400172	0.011719095
53	0xbc2ca9c1	-0.010538519
54	0x3adf7c1d	0.0017050538
55	0xbc750569	-0.014954903
56	0xbb67efb1	-0.003539067
57	0x3bde51a3	0.006784634
58	0xb7a5773b	-1.9725054e-05
59	0xbb4be907	-0.0031114237
60	0x3b1c94ef	0.0023892482
61	0x3a1f83c1	0.00060850015
62	0x3b3bf162	0.002867781
63	0x3b19e448	0.0023482013
64	0x3c6dc267	0.014511681
65	0x3b5c772e	0.0033640373
66	0x3c3c836f	0.011505946
67	0x3c0a719d	0.008449939
68	0x3bdda2d7	0.006763797
69	0x3b8fe3ea	0.004391183
70	0x3ce0bbd3	0.027433312
71	0x3c4baf7d	0.012431976
72	0xb980f753	-0.00024598333
73	0x3c4d4c60	0.012530416
74	0xbd3edc65	-0.046596903
75	0x3c2ea077	0.010658375
76	0xbbd3a947	-0.0064593884
77	0xbca4671a	-0.020068694
78	0xbcb798ad	-0.022411669
79	0x3ca11854	0.01966492
80	0x3c9fe834	0.019519903
81	0x3cbe734c	0.023248337
82	0xbadb69c7	-0.0016739898
83	0x3c6ba49f	0.01438251
84	0xbd041e0f	-0.03225523
85	0x3cac2e36	0.021018129
86	0xbc6c6ede	-0.01443073
87	0xbbbaed10	-0.0057045296
88	0x3a13ac5b	0.0005633288
89	0xbc919518	-0.017771289
90	0xbc38e019	-0.011283898
91	0x3bf69403	0.0075249686
92	0x3c0d353f	0.008618652
93	0x3a87bb2c	0.0010355464
94	0x3b2a7305	0.0026008498
95	0xbbe9d7c5	-0.0071363174
96	0xbba5ec43	-0.005063565
97	0x3c4db121	0.012554438
98	0xbb81b34d	-0.003958142
99	0xbad71806	-0.0016410358
100	0x3d23a938	0.0399563
101	0xbbd18dd9	-0.0063950834
102	0xbb7ecc35	-0.003887904
103	0xbbb1bfa8	-0.0054244585
104	0xbb4dbb4e	-0.003139216
105	0x3be01c66	0.006839323
106	0xbaf0343f	-0.0018326117
107	0xb9378fd8	-0.00017505826
108	0x3b2660e9	0.0025387353
109	0xbbfe0be4	-0.0077528823
110	0x3b1cc6da	0.0023922236
111	0xba97746a	-0.001155508
112	0x3c8d691f	0.01726204
113	0xbb393f5b	-0.0028266523
114	0x3b9d0b2e	0.0047925925
115	0xbbf61052	-0.0075092698
116	0x3c993a54	0.01870457
117	0xbc33850c	-0.010957014
118	0x3c35fd0b	0.011107693
119	0x3bccc4bf	0.00624904
120	0x3c500304	0.0126960315
121	0x3a87f8ca	0.0010373828
122	0x3c18b06d	0.009319407
123	0x3c1a905d	0.009433833
124	0x3b5eb4a4	0.0033982182
125	0x3afc6948	0.001925745
126	0xbb20f93f	-0.0024562625
127	0x3a89a2a1	0.0010500738
128	0xbaa3bdff	-0.0012492536
129	0x3b04f18e	0.002028558
130	0xbd0c50af	-0.034256633
131	0xbc0b1b3c	-0.00849038
132	0x3b7e1e5a	0.0038775415
133	0xbd6445c9	-0.055730615
134	0xbccd1bb9	-0.025037633
135	0xbc26da7c	-0.010183927
136	0x3bffe16a	0.007808854
137	0xbab14d7a	-0.0013527118
138	0x38c349f9	9.312103e-05
139	0xbbf3ef66	-0.00744431
140	0xbad129e9	-0.0015957925
141	0xbb9233df	-0.00446175
142	0xba94baa5	-0.0011347128
143	0x3b6f26ec	0.0036491705
144	0xbc870ab1	-0.01648459
145	0x3cf76592	0.0301998
146	0xbc726141	-0.014793695
147	0xbad20ea5	-0.0016026093
148	0x3c2297b7	0.009923867
149	0x3d24c144	0.040223375
150	0xbc1933d9	-0.00935074
151	0xbbea781a	-0.0071554305
152	0x3b42436f	0.0029642244
153	0xbab8b50f	-0.0014092046
154	0x3b4a1715	0.0030836512
155	0x3b9a000d	0.004699713
156	0x3ae034c1	0.0017105566
157	0xbc04c35f	-0.008103221
158	0xbbef7132	-0.007307195
159	0xbc148557	-0.009064994
160	0xbccf0c71	-0.025274487
161	0xbb7b2115	-0.003831928
162	0x3cacaa75	0.021077374
163	0x3d4b3619	0.04961214
164	0x3b3269f8	0.0027223807
165	0x3c7e4ee9	0.015521743
166	0x3d078d34	0.033093646
167	0x3b31d330	0.0027133934
168	0x3d5b3d7e	0.05352544
169	0x3b10c582	0.002209038
170	0x3c48af17	0.012248776
171	0x3bea3d6b	0.007148435
172	0x3b7b98cc	0.0038390635
173	0xbcd47458	-0.025934383
174	0x3b6d6664	0.003622436
175	0x3c1557f7	0.009115211
176	0xbc018e6b	-0.00790749
177	0xbba17671	-0.0049274494
178	0xbd1b8d9b	-0.037976842
179	0x3c8c384e	0.017116692
180	0x3c70d4bb	0.014699156
181	0xbc914b04	-0.017735966
182	0xbc3545e6	-0.011064028
183	0x3c301f09	0.010749587
184	0x3c8c07ef	0.017093627
185	0x3c6198db	0.013769354
186	0x3c3790a2	0.011203917
187	0x3c0d0570	0.008607253
188	0xbc58906c	-0.013218027
189	0x3b925c9a	0.0044666054
190	0xbbfac8f1	-0.0076533486
191	0x3b24fc45	0.0025174778
192	0xbcaeee48	-0.021353856
193	0x3bacf6d1	0.0052784462
194	0xb9c1510a	-0.00036872207
195	0x398a74c4	0.00026408408
196	0x3c380f79	0.011234158
197	0xbc018ef7	-0.007907621
198	0x3beb6481	0.007183612
199	0xba6aa55c	-0.0008951032
200	0x3c60ca86	0.01372016
201	0xbb4af010	-0.0030965842
202	0xbbbd38ea	-0.005774607
203	0xbc89abd4	-0.016805567
204	0x3bac9058	0.0052662306
205	0xbbd725b5	-0.0065657743
206	0x3c108377	0.008820406
207	0xbbfa2a90	-0.0076344684
208	0xbb6d35fd	-0.003619551
209	0x3c1773c7	0.009243912
210	0xbc7c7745	-0.015409295
211	0xbb8ef577	-0.004362758
212	0xbc35a9c2	-0.011087837
213	0x3b8ed92d	0.0043593855
214	0x3c3ce175	0.0115283625
215	0x3c02de88	0.007987626
216	0x3b85d57b	0.0040842867
217	0xbd597f6f	-0.053100046
218	0xbcd499ce	-0.025952246
219	0x3d506b20	0.050883412
220	0x3a197585	0.00058539986
221	0xbc1e77ab	-0.009672086
222	0xbd27706b	-0.040878695
223	0x3be91b2e	0.007113836
224	0xbba8a648	-0.0051467754
225	0xbd1c6f4a	-0.03819207
226	0x3c308644	0.010774199
227	0x3b133bc6	0.0022466048
228	0x3baab734	0.005209828
229	0xbc292a28	-0.010324992
230	0xbce6bf4f	-0.028167395
231	0x3c00b880	0.007856488
232	0x3cb6c849	0.0223123
233	0x3b908d95	0.004411409
234	0x3c9fb24d	0.0194942
235	0xbbb9b263	-0.0056670173
236	0xbb45e8dd	-0.0030198612
237	0x3c4711a2	0.0121502
238	0x3b6a6f4f	0.0035771911
239	0x3bda625e	0.0066645583
240	0xbd480063	-0.048828494
241	0xbc9e7f66	-0.019347858
242	0x3c55256e	0.013009412
243	0x3c14dfde	0.009086577
244	0x3c01fda5	0.007934009
245	0xba0388b3	-0.0005017623
246	0xbc53cc10	-0.01292707
247	0x3c80ba81	0.015713932
248	0xbc020fe5	-0.00793836
249	0xbd2e57cc	-0.0425642
250	0x3c160b01	0.009157897
251	0xba38e403	-0.00070530194
252	0x39b0e1b3	0.00033737495
253	0xbbc581cc	-0.006027436
254	0xbb654149	-0.003498154
255	0x3b0c636d	0.0021421567

main.initial:128:batchnorm.weight f4 [128]
0	0x3f76d177	0.9641337
1	0x3f7d6119	0.98976284
2	0x3f815242	1.0103228
3	0x3f769beb	0.9633166
4	0x3f861abc	1.0476909
5	0x3f838fc8	1.0278254
6	0x3f80a867	1.0051392
7	0x3f7f7259	0.99783856
8	0x3f788930	0.9708433
9	0x3f817a0a	1.0115368
10	0x3f7fd124	0.999285
11	0x3f7967bb	0.97423905
12	0x3f7017e3	0.9378645
13	0x3f7b2659	0.9810539
14	0x3f7c46ba	0.9854542
15	0x3f83299d	1.0247074
16	0x3f7727a5	0.9654487
17	0x3f747452	0.9548999
18	0x3f8312ed	1.0240151
19	0x3f786475	0.97028285
20	0x3f811242	1.0083697
21	0x3f7ba796	0.9830259
22	0x3f79b730	0.97545147
23	0x3f80869b	1.0041078
24	0x3f7f8b16	0.99821603
25	0x3f72d81a	0.94860995
26	0x3f818d3b	1.0121225
27	0x3f7b9608	0.98275805
28	0x3f7d46e0	0.9893627
29	0x3f82a960	1.0207939
30	0x3f7b2b83	0.9811327
31	0x3f828c10	1.0198994
32	0x3f8046d8	1.002162
33	0x3f75fe98	0.96091604
34	0x3f7bff25	0.98436195
35	0x3f80ee28	1.007268
36	0x3f79fac9	0.9764829
37	0x3f7a6280	0.9780655
38	0x3f7ae667	0.98007816
39	0x3f806e9f	1.0033759
40	0x3f70abba	0.94012034
41	0x3f84042e	1.0313776
42	0x3f7f7e8d	0.99802476
43	0x3f7a2108	0.9770665
44	0x3f7d0554	0.98836255
45	0x3f7917df	0.9730205
46	0x3f7b4231	0.98147875
47	0x3f81e232	1.0147154
48	0x3f7f394a	0.9969679
49	0x3f7b1e85	0.98093444
50	0x3f7c4a94	0.985513
51	0x3f808f9e	1.0043828
52	0x3f7573e9	0.9587999
53	0x3f83296f	1.024702
54	0x3f818ec3	1.0121692
55	0x3f806dab	1.0033468
56	0x3f7e7740	0.9940071
57	0x3f6eca8f	0.9327783
58	0x3f81f242	1.0152056
59	0x3f7aa918	0.97914267
60	0x3f735468	0.9505067
61	0x3f80dd75	1.0067583
62	0x3f7aeba8	0.9801583
63	0x3f7bf610	0.98422337
64	0x3f80b842	1.0056231
65	0x3f82b2e4	1.0210843
66	0x3f839ff6	1.0283191
67	0x3f7b4e3a	0.9816624
68	0x3f801616	1.000674
69	0x3f78978f	0.9710626
70	0x3f7eafa7	0.99486774
71	0x3f7beeb1	0.9841109
72	0x3f7a13e6	0.9768661
73	0x3f78bbed	0.9716175
74	0x3f739495	0.95148593
75	0x3f7e528e	0.9934472
76	0x3f713fe5	0.9423812
77	0x3f7d2d71	0.98897463
78	0x3f782a23	0.96939296
79	0x3f818365	1.0118223
80	0x3f78467d	0.96982557
81	0x3f840c57	1.0316266
82	0x3f73542a	0.950503
83	0x3f7f220c	0.99661326
84	0x3f7978ec	0.9745014
85	0x3f783549	0.96956307
86	0x3f7da83e	0.9908484
87	0x3f77e750	0.9683733
88	0x3f81509e	1.0102727
89	0x3f814d8d	1.0101792
90	0x3f7cd92e	0.9876889
91	0x3f73fa8b	0.95304173
92	0x3f7a6eb7	0.9782519
93	0x3f7576df	0.9588451
94	0x3f806e45	1.0033652
95	0x3f7ef3c4	0.99590707
96	0x3f827665	1.0192381
97	0x3f7c9cfb	0.98677033
98	0x3f79f092	0.97632706
99	0x3f81ea68	1.014966
100	0x3f6e92bc	0.9319265
101	0x3f7c5a36	0.9857515
102	0x3f830a38	1.0237494
103	0x3f7fb9d7	0.99892944
104	0x3f834ef6	1.0258472
105	0x3f7eb70e	0.9949807
106	0x3f7a538b	0.97783726
107	0x3f741c89	0.9535604
108	0x3f7f2a35	0.9967378
109	0x3f7e817f	0.99416345
110	0x3f7e0f60	0.9924221
111	0x3f7ae792	0.980096
112	0x3f7a72da	0.978315
113	0x3f82b4fd	1.0211483
114	0x3f8051e4	1.0024991
115	0x3f83716c	1.0268989
116	0x3f843039	1.0327216
117	0x3f7e17a8	0.99254847
118	0x3f808ac1	1.0042344
119	0x3f7a8199	0.97854
120	0x3f783b7f	0.96965784
121	0x3f857324	1.0425763
122	0x3f7d1645	0.98862106
123	0x3f797a2a	0.9745203
124	0x3f734a6c	0.95035434
125	0x3f86129c	1.0474429
126	0x3f7646ea	0.96201956
127	0x3f6b4371	0.9189978

main.initial:128:batchnorm.bias f4 [128]
0	0x3c64c19d	0.013962177
1	0x3d851b50	0.0649935
2	0x3afaec9e	0.0019144004
3	0x3cdbd582	0.026835207
4	0x3b51df38	0.0032023918
5	0x3d3dc408	0.046329528
6	0x3d05f3e5	0.0327033
7	0x3cb495ee	0.022044148
8	0x3b41e6e7	0.0029587091
9	0x3d801051	0.06253112
10	0x3d3a04c3	0.045414697
11	0x3c6bedfe	0.0144000035
12	0x3d93bfb8	0.07214302
13	0x3ca7bcb2	0.02047572
14	0x3d08a535	0.03336068
15	0x3cee95f3	0.029124236
16	0x3c3061d7	0.010765514
17	0x3d4b8d08	0.049695045
18	0x3d0df7fb	0.03466032
19	0x3d54d40c	0.051960036
20	0x3cfd842f	0.03094682
21	0x3d9d9b1f	0.076956026
22	0x3c2f0909	0.0106833065
23	0x3d8c3789	0.0684653
24	0x3d100d6e	0.035169058
25	0x3c9e2af4	0.019307591
26	0x3d27081c	0.040779218
27	0x3ccdeeb4	0.025138237
28	0xbb5ced64	-0.0033710832
29	0x3b5a12df	0.0033275408
30	0x3d355a2c	0.044275448
31	0x3cc1ee9f	0.023673354
32	0x3cb15f1d	0.021651799
33	0x3c399780	0.011327624
34	0x3b3357f3	0.0027365654
35	0x3c3fb3ed	0.0117006125
36	0x3cda30e7	0.026634647
37	0xbc367f1a	-0.011138702
38	0x3bd7dea4	0.00658782
39	0x3c2babdf	0.010477989
40	0x3cfdc56d	0.030977929
41	0x3c9e5f63	0.019332593
42	0x3d8d410d	0.06897173
43	0x3c244a66	0.010027504
44	0x3d7086db	0.05872236
45	0x3c2a2c5a	0.010386551
46	0x3cf7adb7	0.0302342
47	0x3d166c5e	0.03672444
48	0xbc2e057c	-0.010621425
49	0x3d20c69e	0.039251916
50	0x3d29efeb	0.04148857
51	0x3d7c8cac	0.061657593
52	0x3c5b3019	0.013378167
53	0xbb61a065	-0.0034427878
54	0x3c9c0e69	0.01904984
55	0x3c87ffb2	0.016601417
56	0x3d66fe00	0.056394577
57	0x3d915e85	0.07098106
58	0x3dab5bf7	0.0836715
59	0x3cf99b7a	0.030469645
60	0x3cf80e4d	0.030280257
61	0x3d9dc58f	0.07703697
62	0x3d8ee417	0.069770984
63	0x3d29a29f	0.041414853
64	0x3d89bedf	0.06725859
65	0x3c2b220b	0.010445128
66	0x3d1c0a07	0.0380955
67	0x3d0ea9d6	0.034829937
68	0x3cde74b1	0.027155252
69	0x3d3c50a4	0.045975342
70	0x3d95b909	0.07310683
71	0x3c769abd	0.015051541
72	0x3d2d78db	0.042351585
73	0x3cc1650c	0.023607753
74	0x3cb0410b	0.02151539
75	0x3d826d84	0.06368545
76	0x3cb35d19	0.021894978
77	0x3ceb2ad5	0.028706947
78	0x3cda6803	0.026660925
79	0x3c21d850	0.009878233
80	0x3d146ac7	0.036234643
81	0x3d2f5fa3	0.042815816
82	0x3d824011	0.06359876
83	0x3af5fe98	0.0018767891
84	0xbb4a4f2a	-0.003086994
85	0x3d2e35c0	0.04253173
86	0x3b1d2bc2	0.002398238
87	0x3c9eab2b	0.019368729
88	0x3bc5d0eb	0.006036868
89	0x3cde47d1	0.027133854
90	0x3cd356b2	0.025798175
91	0x3d37b8db	0.044854026
92	0x3d083f1e	0.03326332
93	0x3d30c932	0.043160625
94	0x3d702ce4	0.05863656
95	0x3d51cdb7	0.051221576
96	0x3dd4de51	0.10393966
97	0x3d256eb6	0.040388785
98	0x3cef3997	0.029202266
99	0x3d265ad4	0.040613964
100	0x3d9d3fbd	0.07678173
101	0x3d512249	0.051058087
102	0x3d3f6e9d	0.04673635
103	0x3d241bcb	0.040065568
104	0x3d78c926	0.060738705
105	0x3d9b9b2c	0.07597956
106	0x3c735f81	0.014854313
107	0x3d36725b	0.04454265
108	0x3db898e8	0.090135396
109	0x3c24dd42	0.010062518
110	0x3d428ce3	0.04749764
111	0x3d37d09b	0.044876676
112	0x3d3b13c6	0.045673154
113	0x3ca558b1	0.020183893
114	0x3c83f1e0	0.016106546
115	0x3c064018	0.008193992
116	0x3d036c28	0.032085568
117	0x3d72e60f	0.059301432
118	0x3cf0bd89	0.029387252
119	0x3d804ace	0.06264268
120	0x3cc7249e	0.024309453
121	0x3d4f3706	0.050589584
122	0x3cd2d4f2	0.025736306
123	0x3d4463ff	0.047946926
124	0x3dd47687	0.1037417
125	0x3d0902bd	0.033449877
126	0x3c901e42	0.017592553
127	0x3ca267df	0.01982492

main.initial:128:batchnorm.running_mean f4 [128]
0	0xbaddf606	-0.0016934283
1	0xbaf4da7e	-0.0018680838
2	0x39c4da3e	0.00037546636
3	0x3a681171	0.00088526966
4	0x392dc440	0.00016571674
5	0xba17822c	-0.000577959
6	0x3a704401	0.0009165407
7	0xb9492baf	-0.00019185127
8	0xbab3aff6	-0.0013709057
9	0xbab85c40	-0.0014065579
10	0xb718730a	-9.086691e-06
11	0xbb2a03e8	-0.002594227
12	0x391ce6e3	0.00014963331
13	0xba6c3a83	-0.00090114045
14	0x3b02f828	0.0019984338
15	0xbae8e4b4	-0.0017768354
16	0xbafe75e3	-0.0019413795
17	0x398e57e9	0.0002714985
18	0xba164d18	-0.0005733534
19	0x39cbc726	0.00038867554
20	0x3840235b	4.5809295e-05
21	0x39b6b1ae	0.00034846127
22	0x3a94ffb1	0.0011367706
23	0x39c3f4ea	0.00037375774
24	0x37b9f11a	2.216599e-05
25	0x3a199216	0.00058582553
26	0x38fdde61	0.000121054014
27	0xbaa334ac	-0.001245161
28	0x3a9d6713	0.0012008868
29	0x38297053	4.039735e-05
30	0x3a86a1c4	0.0010271599
31	0x3aa91175	0.0012898879
32	0xba9d14e9	-0.0011984381
33	0x3a7f4e0f	0.00097391097
34	0xba097516	-0.00052435824
35	0x39f3b78a	0.0004648532
36	0xba40ffcc	-0.00073623355
37	0xb74d7ad9	-1.2247555e-05
38	0x3a844ddd	0.0010094006
39	0x3aba149b	0.0014196815
40	0xbab786eb	-0.0014002001
41	0x3ad33c41	0.001611598
42	0x3a44e751	0.00075112755
43	0x3a114ead	0.00055430346
44	0xba0770b6	-0.00051666365
45	0x38b2bb54	8.522594e-05
46	0x3a5b7871	0.0008372134
47	0xb7fa2f26	-2.9824278e-05
48	0x39b4fcc0	0.0003452059
49	0xbab75a78	-0.0013988754
50	0xb972c302	-0.00023151565
51	0x3ada084a	0.001663455
52	0x3ab8bd2a	0.0014094461
53	0x3aa69884	0.0012710248
54	0xb90a7904	-0.00013205787
55	0x398832d6	0.00025977817
56	0x3a91ebdd	0.0011132915
57	0xb967b2d8	-0.00022096501
58	0xbb09e93e	-0.0021043564
59	0xbb023b69	-0.0019871837
60	0x3af68ee5	0.0018810896
61	0x3b10591f	0.0022025777
62	0x39b5528b	0.0003458451
63	0xbae41eae	-0.0017404163
64	0x3ae67581	0.0017582626
65	0x3b000d11	0.0019539038
66	0x3a8b0317	0.0010605779
67	0x39ab8381	0.0003271364
68	0x3aec307d	0.0018019822
69	0x3ab89e24	0.0014085216
70	0xbb093472	-0.00209358
71	0x3a749cd9	0.00093312335
72	0x3a8630dd	0.0010237951
73	0xbabd917c	-0.0014462913
74	0x3b264ad3	0.0025374189
75	0xbaf22493	-0.0018474035
76	0x38ca751e	9.6539254e-05
77	0x3959e8d1	0.00020781464
78	0x3a647f60	0.000871649
79	0xba6dd65f	-0.00090727763
80	0x3ab3117d	0.0013661828
81	0xba2b1ef7	-0.00065277464
82	0x3b06387c	0.0020480445
83	0xbab01acb	-0.0013435719
84	0x3a2c9cc2	0.0006584638
85	0xba4b3d23	-0.00077529455
86	0xba311562	-0.00067552004
87	0xba5a7e8f	-0.0008334899
88	0x3a528443	0.0008030573
89	0x3ade05e3	0.001693901
90	0x393823a7	0.00017560889
91	0x3a5fbbe2	0.00085347716
92	0xb9d25841	-0.00040120076
93	0x3a812bd1	0.0009854977
94	0x3abe8fa8	0.0014538663
95	0x3b664d5a	0.003514132
96	0xba3a427b	-0.0007105243
97	0x3a14e1d4	0.0005679403
98	0x3ab503fc	0.0013810392
99	0x39ec10b1	0.00045025864
100	0x39f77a8f	0.00047202824
101	0xb9552857	-0.0002032829
102	0x3a282933	0.00064148306
103	0xbabb8115	-0.0014305437
104	0xb9b9d927	-0.0003544774
105	0x38d1fb7b	0.000100127385
106	0x3a29c716	0.00064765045
107	0x3a2cd5b6	0.00065931247
108	0x3ae56384	0.0017500971
109	0x3a42d792	0.0007432635
110	0xbabf9ea3	-0.0014619421
111	0x3a4d26bc	0.0007825901
112	0x39647613	0.0002178776
113	0xb9e8b4af	-0.00044385108
114	0x39eeb771	0.00045531572
115	0x3959f526	0.00020786058
116	0x395aec2c	0.00020878081
117	0xba27699a	-0.00063862803
118	0xb8f64340	-0.000117427204
119	0x39aabcba	0.0003256554
120	0x39a6bf84	0.00031804678
121	0x3a94ce44	0.0011352976
122	0x3aff6f26	0.0019488081
123	0xba60fe77	-0.000858284
124	0xbae90f04	-0.0017780964
125	0xba869267	-0.001026702
126	0x390a1fd8	0.00013172568
127	0x3a4809a7	0.0007630833

main.initial:128:batchnorm.running_var f4 [128]
0	0x3c32de73	0.010917294
1	0x3c4f357d	0.01264703
2	0x3c54fdee	0.012999995
3	0x3c6fb22d	0.014629883
4	0x3c4dd505	0.012562995
5	0x3c4c4f49	0.012470075
6	0x3c5304b7	0.012879542
7	0x3c62103e	0.013797818
8	0x3c66ba2f	0.014082476
9	0x3c398bbb	0.011324818
10	0x3c6abd32	0.014327334
11	0x3c5171a8	0.012783445
12	0x3c4d5b52	0.0125339795
13	0x3c4305ae	0.01190321
14	0x3c350bf9	0.011050218
15	0x3c3685d5	0.0111403065
16	0x3c52ff8c	0.01287831
17	0x3c5fc4ec	0.01365779
18	0x3c52613b	0.012840564
19	0x3c66cabd	0.0140864225
20	0x3c3f2ce3	0.011668417
21	0x3c324817	0.010881445
22	0x3c5a6caa	0.013331572
23	0x3c37e7e3	0.01122472
24	0x3c5a4d3f	0.013324081
25	0x3c615596	0.013753315
26	0x3c5f992e	0.013647361
27	0x3c568a95	0.013094564
28	0x3c5bffcf	0.013427689
29	0x3c389a1a	0.011267209
30	0x3c44c6be	0.012010274
31	0x3c4be15c	0.012443867
32	0x3c4c1b3b	0.012457664
33	0x3c51ca24	0.012804542
34	0x3c35dd12	0.011100071
35	0x3c372249	0.011177608
36	0x3c6f0a67	0.014589882
37	0x3c3e1ec3	0.011604014
38	0x3c5b34f8	0.013379328
39	0x3c52400b	0.012832652
40	0x3c47f12a	0.012203494
41	0x3c48e502	0.012261631
42	0x3c4a358a	0.012341866
43	0x3c486c60	0.01223287
44	0x3c5b4874	0.013383973
45	0x3c48987b	0.012243385
46	0x3c4e6de6	0.012599444
47	0x3c433df7	0.011916629
48	0x3c44692e	0.011987967
49	0x3c4f093d	0.01263648
50	0x3c635af3	0.013876664
51	0x3c6afcb1	0.014342473
52	0x3c549b22	0.01297644
53	0x3c53e60a	0.012933264
54	0x3c431b60	0.011908382
55	0x3c4c0516	0.012452384
56	0x3c6460ed	0.0139391245
57	0x3c4bee29	0.0124469185
58	0x3c40f864	0.011777971
59	0x3c524ea6	0.012836134
60	0x3c48fe11	0.012267605
61	0x3c3d671f	0.0115602305
62	0x3c3c48c5	0.011491959
63	0x3c3e0a8a	0.011599192
64	0x3c4778c9	0.0121747935
65	0x3c4774c2	0.012173833
66	0x3c55c1fd	0.013046739
67	0x3c4377f5	0.011930455
68	0x3c439107	0.011936433
69	0x3c4d8849	0.0125447
70	0x3c505ac0	0.012716949
71	0x3c525f9f	0.012840181
72	0x3c58b4d7	0.013226709
73	0x3c4f05a3	0.012635621
74	0x3c456612	0.012048261
75	0x3c45b399	0.012066745
76	0x3c5b9853	0.013403016
77	0x3c415c82	0.011801841
78	0x3c31d721	0.010854513
79	0x3c50a686	0.012735015
80	0x3c3c64d5	0.01149865
81	0x3c4a5726	0.012349879
82	0x3c41bf31	0.011825369
83	0x3c37ddd9	0.011222326
84	0x3c38bbe4	0.011275265
85	0x3c4eb6dc	0.012616839
86	0x3c3967a6	0.011316216
87	0x3c5420bf	0.01294726
88	0x3c338133	0.010956096
89	0x3c43783e	0.011930523
90	0x3c3f4040	0.011673033
91	0x3c4fa534	0.012673665
92	0x3c586e0e	0.013209833
93	0x3c4889b1	0.012239859
94	0x3c5cb482	0.013470771
95	0x3c56ea7c	0.013117429
96	0x3c4757ef	0.012166961
97	0x3c3ab46b	0.011395554
98	0x3c4b33bc	0.012402471
99	0x3c45b3b6	0.012066772
100	0x3c45170f	0.012029423
101	0x3c686dfb	0.014186378
102	0x3c548322	0.012970718
103	0x3c68e5f2	0.0142149795
104	0x3c3c546b	0.011494736
105	0x3c60b50d	0.013715041
106	0x3c5bc3da	0.013413394
107	0x3c533d69	0.012893059
108	0x3c645fb6	0.013938835
109	0x3c3e142c	0.011601489
110	0x3c42d76a	0.011892179
111	0x3c5a7663	0.01333389
112	0x3c6af197	0.014339826
113	0x3c599098	0.013279103
114	0x3c55e98d	0.013056171
115	0x3c45ec92	0.012080329
116	0x3c7514b5	0.01495855
117	0x3c4b9786	0.012426263
118	0x3c3a5b12	0.011374252
119	0x3c61ec57	0.013789258
120	0x3c581028	0.013187446
121	0x3c71fd7a	0.014769906
122	0x3c583c75	0.013198008
123	0x3c60d7f7	0.013723365
124	0x3c34eab7	0.0110422885
125	0x3c4e12cf	0.0125777265
126	0x3c425597	0.0118612265
127	0x3c39fa92	0.0113512445

main.pyramid:128-64:convt.weight f4 [128, 64, 4, 4]
0	0xbaeef883	-0.0018232021
1	0x3d06f961	0.03295267
2	0x3c2b95c9	0.010472723
3	0x3d09917d	0.033586014
4	0x3caa0a29	0.020756798
5	0xbcd6a823	-0.02620322
6	0x3abd5617	0.0014445212
7	0xba268a0f	-0.000635297
8	0xbc76ba21	-0.015059025
9	0x3c0ab0d8	0.008465014
10	0xbcb77e05	-0.022398958
11	0xbd2fbe9d	-0.042906392
12	0xbcf94fa3	-0.030433482
13	0x3b11bb9c	0.0022237068
14	0xbc8d4880	-0.017246485
15	0x3ca53228	0.020165518
16	0xbcd90d0b	-0.026495477
17	0x3c907ade	0.017636713
18	0x39c2a647	0.0003712645
19	0x3c7ffabb	0.015623744
20	0x3c341ce3	0.010993215
21	0x3cf2247c	0.029558413
22	0xbd0eb866	-0.034843825
23	0x3cc12bc4	0.02358044
24	0xbc408cd9	-0.011752331
25	0xba9d617c	-0.0012007202
26	0xbc248d26	-0.010043418
27	0x3c413f86	0.01179493
28	0x3c6a74c0	0.014310062
29	0x3b255be3	0.002523177
30	0x3bb16cd1	0.0054145833
31	0xbc3e7158	-0.011623703
32	0xbbb60e41	-0.0055558984
33	0x3d0821ea	0.033235468
34	0x3cae931c	0.021310382
35	0xba9bca1b	-0.0011885794
36	0x3d1bf167	0.038072016
37	0x3d1513fc	0.03639601
38	0xbd16fe68	-0.036863714
39	0xbc67b44d	-0.014142108
40	0xbcc97173	-0.02459023
41	0x3b8e30b1	0.0043393006
42	0xbc4fcb6d	-0.012682778
43	0xbd51e8f5	-0.051247556
44	0xbc14ef66	-0.00909028
45	0x3c101260	0.008793443
46	0x3cc9f6be	0.024653789
47	0xbc608a78	-0.0137048885
48	0xbb398ffb	-0.0028314579
49	0x3d3e5fbf	0.04647803
50	0x3c9f89f0	0.019474953
51	0xbce0f9ac	-0.027462803
52	0x3c3373cf	0.010952904
53	0x3c280ae8	0.0102565065
54	0x3bced63f	0.006312161
55	0xbcb276d5	-0.02178518
56	0xba8f9f99	-0.0010957598
57	0xbbf50853	-0.007477799
58	0xbc364e9c	-0.01112714
59	0xbcfb68bf	-0.030689595
60	0x3d00c3ee	0.031436853
61	0x3c73803c	0.014862116
62	0xbc3c3073	-0.011486161
63	0x3bd81525	0.0065943175
64	0x3b485ae5	0.0030571755
65	0x3c9e882d	0.019352043
66	0xbc38ea87	-0.011286384
67	0x3d3d7ac8	0.04625967
68	0x3c8180f3	0.015808558
69	0x3bb43bb7	0.0055002826
70	0x3cc4dc64	0.024030872
71	0x3c47f2dc	0.012203898
72	0x3bea2dd6	0.0071465774
73	0x3c72e377	0.01482474
74	0x3caebb3a	0.021329511
75	0x3af89027	0.0018963859
76	0xbcf96c3c	-0.030447118
77	0xbc07eb7d	-0.008295891
78	0xbc310f49	-0.010806867
79	0x3c935abc	0.017987601
80	0xbc2a96f1	-0.010411964
81	0x3aece8a0	0.0018074699
82	0xbc7729a4	-0.0150856115
83	0xbcafa9df	-0.021443306
84	0x3b30ba81	0.0026966634
85	0xbd08a54f	-0.033360776
86	0xbc74469d	-0.014909414
87	0xbce6c137	-0.028168304
88	0x3c24d9c7	0.010061688
89	0xbbe28083	-0.0069122924
90	0xbd407844	-0.046989694
91	0xbcd03d04	-0.02541972
92	0xbc941c84	-0.018080004
93	0xbb1e9daa	-0.0024202862
94	0xbd088c93	-0.033337187
95	0x3b15b31b	0.002284235
96	0xbadcb3d1	-0.0016838257
97	0xbab1d10d	-0.001356633
98	0xbc64c87e	-0.013963817
99	0xba9b5317	-0.0011850324
100	0x3b953309	0.004553203
101	0xbc75c206	-0.014999872
102	0xbc805175	-0.015663842
103	0x3c094c2f	0.00837998
104	0xbd0cc63d	-0.034368742
105	0xbd2ae394	-0.04172094
106	0xb8a16afb	-7.697005e-05
107	0xbc866a44	-0.016408093
108	0xbc519ab9	-0.012793236
109	0xbcfd0a35	-0.030888656
110	0xbd2a85bc	-0.041631445
111	0xbd399815	-0.045311052
112	0x3cb8d0f0	0.022560567
113	0xbc02c803	-0.007982257
114	0x3bcf1366	0.006319451
115	0xbc49cfb7	-0.0123175895
116	0x3aaa30d6	0.0012984525
117	0x3cb0a70c	0.02156403
118	0x3d19a244	0.037508264
119	0xbc3423c1	-0.0109948525
120	0x3d327802	0.04357148
121	0x3d16da1b	0.036829095
122	0x3b35f4de	0.002776436
123	0xbcc9696f	-0.024586407
124	0x3d112a65	0.03544082
125	0x3d05195b	0.032494884
126	0xbc879529	-0.016550617
127	0xbca5353b	-0.020166984
128	0x3b0c321f	0.002139218
129	0xbcd5338b	-0.026025554
130	0x3bccb583	0.006247224
131	0xbc1a5ad2	-0.009421067
132	0xbcfbf7dc	-0.030757837
133	0x3c75be1f	0.014998942
134	0xbabf7ee0	-0.0014609955
135	0x3ce775d1	0.028254421
136	0xbbc5ef91	-0.0060405214
137	0xbd23e407	-0.040012386
138	0x3c34322c	0.01099829
139	0xbc6be7d1	-0.014398531
140	0xbcdfc219	-0.027314233
141	0xbd26ece9	-0.04075328
142	0x3bf569ec	0.0074894335
143	0xbce189ac	-0.027531467
144	0x3ca7e4d3	0.020494854
145	0x3cf0d4f6	0.029398423
146	0x3cd0259a	0.025408555
147	0x3ca8cb83	0.020604854
148	0xbc316fce	-0.010829879
149	0xbcb3f970	-0.021969527
150	0xbcbce26b	-0.023057183
151	0x3d0f2931	0.034951393
152	0x3ceac49b	0.028658202
153	0xbc60536b	-0.013691763
154	0x3c34dd62	0.01103911
155	0xbcd830b3	-0.02639041
156	0xbd19ec3d	-0.03757881
157	0x3d3748da	0.04474721
158	0x3ce15137	0.027504547
159	0x3c08fa8c	0.008360516
160	0x390adb37	0.0001324237
161	0x3c3513c0	0.011052072
162	0x3c057ff8	0.008148186
163	0xbc260d53	-0.010135013
164	0x3cb6561a	0.022257853
165	0x3c30db1c	0.010794427
166	0x3c46222e	0.01209311
167	0xbc06a3d4	-0.008217771
168	0xbd09024d	-0.03344946
169	0xbcd59e4b	-0.026076457
170	0xba8ad687	-0.0010592499
171	0x3b8e1a7f	0.0043366547
172	0x3b653f90	0.0034980513
173	0xbc2742cd	-0.010208798
174	0xbc7f2f94	-0.015575308
175	0xbc6f34cd	-0.014599991
176	0x3c0c7bc1	0.008574427
177	0xbd34747e	-0.044056408
178	0xbd59dd30	-0.053189456
179	0xbc974bde	-0.018468793
180	0xbc7a7874	-0.015287507
181	0x3b990eae	0.0046709394
182	0xb8dfe69f	-0.00010676425
183	0x39ea658b	0.00044707613
184	0xbd698ae8	-0.057017237
185	0x3cb59fb2	0.022170875
186	0xbce070cd	-0.027397538
187	0xbcaef6b2	-0.021357868
188	0xbcad8a9b	-0.021184256
189	0x3be1a940	0.0068866313
190	0xbd006a7f	-0.031351563
191	0xbca4e575	-0.020128945
192	0x3ce5bd01	0.028044226
193	0xb7af81d4	-2.0922082e-05
194	0xbb9cb3e9	-0.004782189
195	0xbca03fa3	-0.019561594
196	0xbccbf51f	-0.024897156
197	0xbc13240a	-0.00898076
198	0x3a01344c	0.00049287523
199	0xbc4e30ee	-0.012584908
200	0x3c8edc43	0.017439013
201	0x3cced32e	0.025247183
202	0xb7043cd0	-7.881972e-06
203	0xbc66ac10	-0.014079109
204	0x3b476eb6	0.003043098
205	0x3b8758c9	0.004130457
206	0x3c549c3d	0.012976703
207	0xbcc36427	-0.023851467
208	0xbd07673f	-0.033057448
209	0x3acf4b04	0.0015815203
210	0x3ce155b7	0.027506692
211	0xbb62a825	-0.0034585085
212	0xbcbd6bce	-0.023122694
213	0x3badc59c	0.005303098
214	0xbc011196	-0.007877728
215	0x3ca56326	0.02018888
216	0x3cd9881f	0.026554165
217	0xbbdac261	-0.006676004
218	0xbabc5521	-0.0014368632
219	0x3bb724d4	0.005589107
220	0x3b080ad3	0.0020758405
221	0xbc88d4f4	-0.016703106
222	0xbcea436a	-0.028596599
223	0xbccfec08	-0.025381103
224	0x3c6de645	0.014520233
225	0xbc9c886f	-0.019108025
226	0x3bf492b9	0.0074637798
227	0x3cbefc2c	0.023313604
228	0xbbc55b76	-0.006022866
229	0x3d100d4a	0.035168923
230	0xbc8da59a	-0.017290879
231	0x3c8b9c1e	0.017042216
232	0x3c59922e	0.013279481
233	0xbcc9d77c	-0.024638884
234	0x3ce1d2fa	0.027566422
235	0x3c43c1da	0.011948073
236	0xbbf62b83	-0.007512511
237	0xbc88fdaa	-0.016722519
238	0x3c83279d	0.0160101
239	0x39d86e00	0.00041280687
240	0x3c6c2e9f	0.014415412
241	0xb93f2b9d	-0.00018231427
242	0xbc8098ed	-0.01569792
243	0xbc05c35f	-0.008164256
244	0xbb0f2084	-0.002183945
245	0xbba08de1	-0.004899726
246	0xbd0766a5	-0.033056874
247	0xbcfbf6e6	-0.030757379
248	0x3ba7a7d0	0.0051164404
249	0x3cccc159	0.02499454
250	0x3b9dff9c	0.004821731
251	0xbc96b4d8	-0.01839678
252	0x3b9b6a98	0.0047429316
253	0x3c2827e4	0.010263417
254	0x3bc88328	0.0061191507
255	0xbc69dc38	-0.014273696

main.pyramid:64:batchnorm.weight f4 [64]
0	0x3f70de00	0.94088745
1	0x3f7dd244	0.99148965
2	0x3f81e3f9	1.0147697
3	0x3f84667b	1.0343775
4	0x3f85f124	1.0464215
5	0x3f84ff47	1.0390404
6	0x3f83c229	1.0293628
7	0x3f7b55b7	0.98177665
8	0x3f83e0e4	1.0303006
9	0x3f7fafd2	0.99877656
10	0x3f80cee6	1.006314
11	0x3f87de75	1.0614763
12	0x3f8264f1	1.0187055
13	0x3f817480	1.0113678
14	0x3f762062	0.9614316
15	0x3f83d262	1.0298579
16	0x3f7f7bfa	0.9979855
17	0x3f7d77c2	0.9901086
18	0x3f84a7db	1.0363725
19	0x3f88e19f	1.0693854
20	0x3f823847	1.0173424
21	0x3f7a7f6a	0.9785067
22	0x3f7bc24c	0.9834335
23	0x3f806b6d	1.0032784
24	0x3f771394	0.9651425
25	0x3f8124ae	1.0089319
26	0x3f766e63	0.96262187
27	0x3f80fd82	1.0077364
28	0x3f7707da	0.96496356
29	0x3f789f8a	0.9711844
30	0x3f83d56f	1.029951
31	0x3f78c2a9	0.9717203
32	0x3f7ba213	0.9829418
33	0x3f80f78f	1.0075549
34	0x3f82763b	1.0192331
35	0x3f80dc9e	1.0067327
36	0x3f83112d	1.0239617
37	0x3f81e670	1.0148449
38	0x3f7b4914	0.98158383
39	0x3f6ffadc	0.93742156
40	0x3f832366	1.0245178
41	0x3f82c56d	1.02165
42	0x3f7fd45f	0.9993343
43	0x3f7c7bcb	0.98626393
44	0x3f7fa7c5	0.9986537
45	0x3f8858f5	1.0652148
46	0x3f8539f1	1.0408307
47	0x3f826013	1.018557
48	0x3f76b31e	0.9636706
49	0x3f7d3cb1	0.9892073
50	0x3f80de62	1.0067866
51	0x3f8031e0	1.0015221
52	0x3f80f2a2	1.0074046
53	0x3f871ff7	1.055663
54	0x3f7ce639	0.9878879
55	0x3f7b09d2	0.9806186
56	0x3f7aa161	0.97902495
57	0x3f6ff7f2	0.9373771
58	0x3f7d34fa	0.9890896
59	0x3f7e650d	0.9937294
60	0x3f8255e3	1.018246
61	0x3f83aeea	1.0287755
62	0x3f7d5126	0.9895195
63	0x3f830a18	1.0237455

main.pyramid:64:batchnorm.bias f4 [64]
0	0x3d07d5d9	0.033162925
1	0x3bded9ff	0.0068008895
2	0xbccadd77	-0.024763806
3	0x3d4ea4d3	0.050450157
4	0x3d309cdb	0.04311834
5	0x3d22bbf0	0.039730012
6	0x3d6ee1f0	0.05832094
7	0x3c9391d0	0.018013865
8	0x3ce3acc7	0.027792348
9	0x3d98cf3e	0.07461403
10	0x3d5df3c9	0.05418757
11	0x3cb479f7	0.022030814
12	0x3d47a2bd	0.048739184
13	0x3d0df746	0.034659646
14	0x3d60f927	0.05492511
15	0x3d66c6ec	0.05634205
16	0x3d41bffb	0.047302227
17	0xbc9737e8	-0.018459275
18	0x3c856779	0.016284691
19	0x3e178244	0.14795786
20	0x3d565384	0.05232574
21	0x3d9dea58	0.07710713
22	0x3c51a56e	0.012795789
23	0xbc92dfbf	-0.017928956
24	0xbd25f587	-0.040517356
25	0x3caba497	0.020952506
26	0xbcc5eb1d	-0.024159962
27	0x3d51b564	0.05119838
28	0x3d29db47	0.041468885
29	0x3d63a563	0.055577647
30	0xbd20aa4a	-0.0392249
31	0xbd2df385	-0.042468566
32	0x3d9dd643	0.07706883
33	0x3d536854	0.051613167
34	0x3caa318a	0.020775575
35	0xbc84f33f	-0.01622927
36	0x3ca5720c	0.020195983
37	0x3cf26af4	0.029592015
38	0xbc25bd6f	-0.010115965
39	0x3c52ac33	0.012858438
40	0xbc88f1a0	-0.016716778
41	0x3cfc4bc4	0.030797847
42	0xbc5d40f1	-0.013504253
43	0x3d80e440	0.06293535
44	0x3d8f1d6e	0.06988035
45	0x3dc56a01	0.09639359
46	0x3d1609a8	0.036630303
47	0x3d843ab1	0.06456507
48	0x3c989b81	0.018628838
49	0x3c3c807b	0.0115052415
50	0x3d862142	0.06549312
51	0x3bc7c1f8	0.006096121
52	0x3c838895	0.016056338
53	0x3d5fbb6b	0.054622095
54	0x3d584b15	0.05280598
55	0x3d5824f9	0.052769635
56	0x3d141d0f	0.036160525
57	0x3d87b68d	0.06626616
58	0x3d2fe24a	0.042940415
59	0x3da4ab93	0.08040538
60	0x3d6f661e	0.058446996
61	0xbd26fc4d	-0.040767957
62	0x3d57d450	0.05269271
63	0x3d864299	0.06555671

main.pyramid:64:batchnorm.running_mean f4 [64]
0	0xbdbd1a9f	-0.09233593
1	0x3c157963	0.009123179
2	0x3de244ed	0.11048303
3	0xbd9a418d	-0.07532034
4	0xbce6bdd8	-0.028166696
5	0xbd96ca1f	-0.0736277
6	0xbc8fd216	-0.017556231
7	0xbbcd996e	-0.0062743938
8	0x3cc5202e	0.024063196
9	0xbd541fa6	-0.051787995
10	0xbd1ca9f7	-0.03824803
11	0xbd35a12c	-0.04434316
12	0xbe59657a	-0.21230116
13	0xbdc3e510	-0.095651746
14	0xbe2ddcee	-0.16978809
15	0xbdc1f11d	-0.09469817
16	0xbd9aeb18	-0.07564372
17	0x3ddbde59	0.10735769
18	0x3cabb993	0.020962512
19	0xbe19995f	-0.14999913
20	0xbddeddec	-0.10882172
21	0xbd73a9f6	-0.05948826
22	0x3d42312d	0.04741018
23	0x3d24d6d9	0.040243957
24	0x3d90c1d9	0.070682235
25	0xbdc901c8	-0.09814793
26	0x3c9ca2b3	0.01912055
27	0xbe23a1cd	-0.15979691
28	0xbe081c08	-0.13291943
29	0xbcdb17bc	-0.026744716
30	0x3dcb2f34	0.09921113
31	0x3de3d03e	0.111237034
32	0xbda22292	-0.0791675
33	0xbe49df1b	-0.19714014
34	0xbdf1b96f	-0.11802947
35	0x3dc9c832	0.09852637
36	0x3e15cb10	0.14628243
37	0xbe0dd5ee	-0.13851139
38	0x3d6a5f45	0.057219762
39	0xbdac79c9	-0.08421666
40	0x3d56fec7	0.05248907
41	0xbe815b7f	-0.25265118
42	0x3dabe9d9	0.08394212
43	0x3c1f45e8	0.009721257
44	0xbde7a511	-0.11310781
45	0xbdd95424	-0.10611752
46	0xbd1a5226	-0.037676
47	0xbba86ffd	-0.005140303
48	0x3d6ce229	0.05783287
49	0x398267ba	0.00024872815
50	0xbe0883a1	-0.13331462
51	0x3d7b70c3	0.061386835
52	0xbb1f3657	-0.0024293864
53	0x3b8585d0	0.0040747896
54	0xbe237261	-0.15961601
55	0xbe3d3665	-0.18477781
56	0xbe0f369c	-0.13985676
57	0xbcf281b0	-0.029602855
58	0xbd544750	-0.05182582
59	0xbdf79094	-0.12088123
60	0xbdaa09a3	-0.08302619
61	0x3d79f867	0.06102791
62	0xbe42cb29	-0.19022812
63	0xbe10e7b2	-0.14150885

main.pyramid:64:batchnorm.running_var f4 [64]
0	0x3e0613ca	0.13093486
1	0x3e0d34de	0.13789698
2	0x3dbaf374	0.09128466
3	0x3defffdb	0.117187224
4	0x3d7fd47d	0.062458504
5	0x3dcc988b	0.09990033
6	0x3daf7b5d	0.085684516
7	0x3da43a44	0.08018926
8	0x3dede472	0.11615838
9	0x3e30e39b	0.17274325
10	0x3df46c79	0.11934752
11	0x3dd775be	0.105205044
12	0x3df1b3d6	0.11801879
13	0x3de694d8	0.112588584
14	0x3da357e4	0.07975748
15	0x3dd8dc61	0.10588909
16	0x3e458c92	0.19291905
17	0x3da64a84	0.081196815
18	0x3db7d514	0.08976188
19	0x3dc03ddd	0.093867995
20	0x3e1f4a4c	0.15555686
21	0x3db431c5	0.08798555
22	0x3e0c5647	0.13704787
23	0x3e0eeb59	0.13956966
24	0x3dc479e8	0.09593564
25	0x3d8b6710	0.06806767
26	0x3da024bf	0.07819509
27	0x3e0de598	0.13857114
28	0x3dea5b2d	0.11443172
29	0x3dd28c9a	0.10280724
30	0x3e2a8de4	0.1665569
31	0x3dadad59	0.08480329
32	0x3dcb834b	0.099371515
33	0x3db2e885	0.08735756
34	0x3dee355a	0.1163127
35	0x3df60884	0.12013343
36	0x3d99d505	0.075113334
37	0x3dd63000	0.10458374
38	0x3d8f601c	0.07000753
39	0x3e2b572e	0.16732475
40	0x3e04e741	0.12978841
41	0x3e05f71c	0.13082546
42	0x3ddacf85	0.106841125
43	0x3d9e61e1	0.07733513
44	0x3d7d0f27	0.06178203
45	0x3d84d9db	0.06486865
46	0x3e2cf5ab	0.1689059
47	0x3d9d4bf1	0.076805
48	0x3e0e7903	0.1391335
49	0x3db06156	0.08612315
50	0x3db1e23c	0.08685729
51	0x3ded56e8	0.11588842
52	0x3de41620	0.111370325
53	0x3d91882b	0.0710605
54	0x3e25f6ed	0.16207476
55	0x3dfdf786	0.12400727
56	0x3dd6a9ee	0.1048163
57	0x3e2ca90f	0.16861366
58	0x3dca9dd3	0.09893384
59	0x3dbc15f0	0.09183872
60	0x3e08aae2	0.13346437
61	0x3dfaa14f	0.122377984
62	0x3e16ee69	0.14739384
63	0x3e5bcc19	0.21464576

main.final:64-8:convt.weight f4 [64, 8, 4, 4]
0	0x3c99344a	0.018701691
1	0x3cec6ed6	0.028861444
2	0x3b9e9e48	0.004840646
3	0x3ca18627	0.01971729
4	0xbb16f9d5	-0.0023037095
5	0xbc5f5573	-0.0136312125
6	0xbc9e1d8a	-0.019301195
7	0xbc2940f0	-0.010330424
8	0xbc8dabd6	-0.017293852
9	0xbc6272ac	-0.013821285
10	0xbcf8f59f	-0.030390559
11	0x3cf9ebcd	0.030507946
12	0xbcc8f512	-0.024530921
13	0xbc1e1133	-0.009647655
14	0xbd47ac5f	-0.04874837
15	0xbc94ab0d	-0.01814797
16	0x3c0acacf	0.008471205
17	0x3c3217bc	0.0108699165
18	0x3b0862c0	0.0020810813
19	0xbb0ebf1b	-0.0021781388
20	0x3c060f18	0.00818231
21	0x3bde83d6	0.0067906184
22	0xbacd230c	-0.0015650704
23	0x3b8e67fa	0.004345891
24	0x3bd2bd7b	0.0064312792
25	0x3c2fb674	0.010724653
26	0x3bd58376	0.0065159155
27	0x3bedc519	0.007256162
28	0x3b7feee5	0.0039052304
29	0x3bc41f36	0.005985166
30	0x3bb776e0	0.005598888
31	0x3b9ae738	0.0047272705
32	0xbb48e541	-0.0030654224
33	0x3c94f4b3	0.018183088
34	0xbc993d2a	-0.018705923
35	0x3ac8aa0b	0.0015309466
36	0x3c76b640	0.0150581
37	0x3cd8e291	0.026475223
38	0xbbd4804b	-0.0064850203
39	0x3b36ff0a	0.0027923011
40	0x3cc57a9d	0.024106318
41	0x3bfb27d9	0.0076646623
42	0xbca4ba13	-0.020108258
43	0x3ca99e88	0.020705476
44	0xbd171c3f	-0.036892172
45	0x3c847884	0.016170748
46	0xbd1c4b69	-0.038157854
47	0x3cffc2ba	0.031220783
48	0xbc685b67	-0.014181948
49	0xbd155821	-0.036461
50	0x3d211dda	0.03933511
51	0x3c7c0dee	0.0153841805
52	0xbc187c5c	-0.009306993
53	0x3bef8f5b	0.0073107905
54	0x3cdc219e	0.026871499
55	0xbc2d9e67	-0.010596848
56	0xbce0b3ba	-0.02742945
57	0xbad3f67f	-0.0016171484
58	0x3cb7a2ab	0.022416433
59	0xbd09113e	-0.03346371
60	0xbc3284b8	-0.0108959
61	0xbd6b2af4	-0.05741401
62	0xbd125fc8	-0.035735875
63	0x3c0cabe2	0.008585902
64	0xbc3d8de4	-0.011569474
65	0xbc152a5b	-0.009104337
66	0xbc9dccb7	-0.019262655
67	0x3a8734bd	0.00103154
68	0x3c02b65d	0.007978049
69	0xbc4e2304	-0.012581591
70	0x3bd1d384	0.0064033885
71	0xbc7ba5f4	-0.0153593905
72	0xbc9d8593	-0.019228732
73	0xbd2e184d	-0.042503644
74	0xbc885409	-0.016641634
75	0xbb2840e9	-0.0025673455
76	0xbb25e452	-0.0025313091
77	0x3befe496	0.0073209507
78	0xbcd39e70	-0.025832385
79	0xbb69b3ea	-0.0035660216
80	0x3d0b1193	0.033952307
81	0x3c915667	0.017741395
82	0x3a0fcf66	0.0005485922
83	0xbc09df5b	-0.0084150685
84	0xbd5443d8	-0.051822513
85	0x3bf9d1fc	0.007623909
86	0x3c960d0a	0.018316764
87	0x3cf53669	0.029933171
88	0x3cb0369f	0.02151042
89	0x3ae57f6f	0.0017509292
90	0x3cef8728	0.029239252
91	0x3cea5871	0.028606625
92	0x3cbecd78	0.023291335
93	0xbc191214	-0.009342689
94	0x3c4e477b	0.012590284
95	0xbd189058	-0.037247032
96	0x3c70ed76	0.014705053
97	0xbc0d8566	-0.008637762
98	0x3cce2d1b	0.025167992
99	0x3c4097a4	0.011754904
100	0xbcb728aa	-0.022358257
101	0x3cb469a3	0.022023028
102	0x3d30f0cb	0.043198388
103	0xbd1a2d80	-0.03764105
104	0x3cf95316	0.030435126
105	0xbca1af3f	-0.019736884
106	0x3bacffac	0.005279502
107	0x3d4d8cbd	0.050183047
108	0xbd513f43	-0.05108572
109	0xbcc2c094	-0.023773469
110	0x3ca196c7	0.019725217
111	0xbcf10c86	-0.029424917
112	0xba69b193	-0.0008914705
113	0xbd324f51	-0.043532673
114	0x3c825172	0.015907977
115	0xbc1c6534	-0.009545613
116	0x3b18ab82	0.0023295586
117	0x3d00ee7f	0.031477448
118	0x3c783ca9	0.015151181
119	0x3c6ae374	0.014336456
120	0xbcb783c6	-0.022401702
121	0xbb9b50cd	-0.004739857
122	0xbac52872	-0.0015041961
123	0xbc9113fb	-0.017709723
124	0x3ce5fcea	0.0280747
125	0xbd49c83d	-0.049263228
126	0x3c9b5f84	0.018966444
127	0xbcbfee8d	-0.02342918
128	0x3c50aee1	0.012737007
129	0x3cdebd91	0.027190002
130	0xbc95201f	-0.018203793
131	0xbbc73b75	-0.006080086
132	0x3c709dbd	0.014686045
133	0x3cc17e82	0.023619894
134	0xbd017b80	-0.03161192
135	0x3c6053b5	0.013691832
136	0x3ab19afe	0.001355022
137	0xbcbea790	-0.02327326
138	0x3d3135a6	0.043264054
139	0xbc292918	-0.010324739
140	0x3d0abd54	0.033871964
141	0xbc16837e	-0.009186624
142	0xbba6280b	-0.0050706915
143	0xbd57f287	-0.052721526
144	0xb8c4285c	-9.353526e-05
145	0x3c9db556	0.019251507
146	0xbbd5f59e	-0.006529524
147	0x3c57dd3d	0.013175306
148	0x3c29f2de	0.010372845
149	0xbb903c53	-0.0044017225
150	0xbc1cc296	-0.009567877
151	0x3b092478	0.0020926278
152	0x3c1c8bd0	0.009554818
153	0x3c4ec490	0.012620106
154	0xbacb16ea	-0.00154945
155	0x3a7ba8ec	0.00096000615
156	0x3bdbc265	0.0067065232
157	0x3a43cb72	0.00074689754
158	0xbb8f6f79	-0.0043773022
159	0x3b3939f1	0.0028263296
160	0x3852e634	5.0282295e-05
161	0xbc5dd7d2	-0.013540225
162	0xbc59b89a	-0.013288641
163	0xbd3c792b	-0.046013992
164	0xbc959167	-0.01825781
165	0xbc5a93fa	-0.013340944
166	0xbcf2904d	-0.029609824
167	0xbbafdc30	-0.0053668246
168	0xbbd21d07	-0.0064121517
169	0x3ccd7828	0.025081709
170	0xbcad5188	-0.021157041
171	0xbd6a0220	-0.057130933
172	0xbc965390	-0.018350393
173	0xbb5bc4b9	-0.0033534004
174	0xbbdc4cf4	-0.0067230407
175	0xbbd7fd64	-0.006591486
176	0xbd19029c	-0.037356004
177	0xbc866239	-0.016404258
178	0xbce030fe	-0.027367111
179	0x3acd934a	0.0015684154
180	0x3cb1735e	0.021661457
181	0x3ce97472	0.028497908
182	0xbd093b76	-0.033503972
183	0x3c8ab95d	0.016934091
184	0x3c2f7ada	0.010710442
185	0x3c62c55b	0.0138409985
186	0xba8f4dfb	-0.0010933274
187	0x3ce31929	0.027721958
188	0xbcc14f4f	-0.023597388
189	0xbc6e555f	-0.014546721
190	0x3c940df0	0.018073052
191	0xbcd22ec8	-0.025657073
192	0xbc914a5e	-0.017735656
193	0xbd253a30	-0.040338695
194	0xbbaabf4f	-0.005210794
195	0x3acbc662	0.0015546794
196	0xbcffd91c	-0.031231456
197	0xbc8fd905	-0.017559538
198	0xbccfe916	-0.025379699
199	0xbc0fa1b7	-0.008766583
200	0x3a82a401	0.000996709
201	0xbd2405bf	-0.040044542
202	0x3d1de18e	0.038545184
203	0x3c4d9b85	0.012549286
204	0xbb8cb285	-0.004293742
205	0x3c45f9c7	0.012083477
206	0xbd0e4633	-0.034734916
207	0xbc399da1	-0.011329086
208	0x3b9433d6	0.004522781
209	0xbcf0fb10	-0.02941659
210	0xbd07e44f	-0.033176716
211	0xbca40521	-0.020021977
212	0xbcec16b1	-0.028819414
213	0x3cbeca75	0.023289898
214	0x3d2f32f3	0.0427732
215	0x3c64d592	0.013966935
216	0x3cbba97c	0.022907965
217	0x3cd22258	0.025651142
218	0xbb060964	-0.0020452375
219	0x39e53407	0.00043717047
220	0x3cddb364	0.02706308
221	0xbc9d0a65	-0.019169996
222	0xbca9fb6b	-0.020749768
223	0x3d799cd1	0.060940567
224	0xbd9de011	-0.07708753
225	0xbc084f84	-0.008319739
226	0xbdd85249	-0.1056257
227	0xbd6e2914	-0.058144644
228	0xbd065f53	-0.032805752
229	0xbbb8d0db	-0.005640132
230	0x3c21ea7a	0.009882564
231	0xbce5a913	-0.028034722
232	0x3a2b6aa8	0.00065390253
233	0x3c9274da	0.017877985
234	0xbd30665c	-0.043066368
235	0xbd22a521	-0.03970826
236	0xbafc9340	-0.0019269958
237	0xbd186438	-0.03720495
238	0x3ca3bd25	0.019987652
239	0x3bf8ab95	0.0075888135
240	0x3cb67034	0.0222703
241	0x3bf07692	0.0073383534
242	0x3c99a467	0.018755151
243	0xbb12ce98	-0.0022400972
244	0x3bbcaca1	0.0057578837
245	0x3b99f6b0	0.004698597
246	0x39bf4948	0.00036484958
247	0xbcb3313d	-0.021874065
248	0xbb9fb79e	-0.004874184
249	0x3ccfa179	0.02534555
250	0x3d0b273f	0.033972975
251	0xba352829	-0.00069105864
252	0xbcacc8e8	-0.021091893
253	0x39002c70	0.00012223586
254	0xbcb6e428	-0.02232559
255	0x3bbbc827	0.005730647
