overcooked_ai_pcg/GAN_training/data/training/netG_epoch_49999_999_large.pth (torch_old, 824854 bytes, 11 tensors)

main.initial:32-128:convt.weight f4 [32, 128, 4, 4]
0	0xbc0a2ce9	-0.008433559
1	0xbc4f6cc9	-0.012660214
2	0xbaec5c85	-0.0018032944
3	0xbce41b2b	-0.027844986
4	0xbca75c54	-0.020429768
5	0xbbe9317e	-0.0071164956
6	0xbcc20c48	-0.023687497
7	0x3cd2ce2c	0.025733076
8	0x3b7b4965	0.0038343307
9	0xbb350059	-0.0027618615
10	0x3beabfbd	0.0071639703
11	0xbc4a725e	-0.012356369
12	0x3c72ba2c	0.014814895
13	0x3ba13944	0.0049201567
14	0xba46e2dc	-0.0007586905
15	0xba03932e	-0.0005019185
16	0xbb587e31	-0.00330342
17	0x3d891455	0.06693331
18	0xb7b2f558	-2.13335e-05
19	0x3bad5b57	0.0052904296
20	0x3b69d370	0.0035679005
21	0xbbd10e32	-0.006379866
22	0xbbbf685d	-0.0058412985
23	0xbae23116	-0.001725706
24	0xbbb0a261	-0.005390451
25	0x3c0b08e9	0.008486011
26	0xbc467e11	-0.0121150175
27	0x3c25ad29	0.010112085
28	0x3acc8f38	0.0015606647
29	0xbb1f65c6	-0.0024322136
30	0x3b6d1201	0.0036174061
31	0x3b689ccf	0.0035493856
32	0xbc3d5ecb	-0.011558245
33	0xbbd707a0	-0.0065621883
34	0xbc139d1c	-0.009009626
35	0xbbff1cac	-0.0077854004
36	0x3bea3afc	0.0071481448
37	0xbc46f933	-0.012144375
38	0xbb5f2fcb	-0.0034055586
39	0x3b07f156	0.0020743213
40	0x3ca5f2d1	0.020257385
41	0x3b0bec11	0.0021350423
42	0x3b9e7b79	0.0048364964
43	0xbba8c1d5	-0.0051500597
44	0xbbb49b43	-0.0055116727
45	0xb9fee6ee	-0.0004861871
46	0xbbdd4082	-0.0067520747
47	0x3b05ce03	0.0020416982
48	0xbcaab62c	-0.02083882
49	0xbc9ec9c2	-0.019383315
50	0xbc6923fc	-0.014229771
51	0x3d0caf97	0.034347143
52	0xbb8c7db8	-0.004287448
53	0x3c752098	0.014961384
54	0xbba60e97	-0.005067657
55	0xbc3c20fb	-0.0114824725
56	0xbc36dacb	-0.011160563
57	0x3c225b26	0.009909427
58	0x3b2a3522	0.002597161
59	0xbb6282df	-0.0034562869
60	0x3b92d874	0.0044813696
61	0x3b72d044	0.0037050406
62	0x3bc96e41	0.0061471765
63	0x3d14281f	0.036171075
64	0x3beb9782	0.007189692
65	0xbbe4442a	-0.0069661336
66	0x3b8df4b4	0.0043321494
67	0xbc0b5cd9	-0.008506023
68	0xbac954a4	-0.0015360308
69	0xbc1af65a	-0.009458149
70	0xbae4ec5f	-0.0017465464
71	0x3b411c6e	0.0029466408
72	0xbc8f4683	-0.017489677
73	0xbc20ef03	-0.00982261
74	0xbc832372	-0.016008113
75	0xbd26fba2	-0.04076732
76	0xbac87d4f	-0.0015296134
77	0x391f6f09	0.00015204785
78	0xba3335ce	-0.00068363256
79	0x3a9ca953	0.0011952318
80	0xbbead409	-0.00716639
81	0xbbb19ec9	-0.00542054
82	0xbcc9192f	-0.024548141
83	0x3aa8a5b3	0.0012866765
84	0xbb6a6c97	-0.003577029
85	0x3b9f8a69	0.0048687947
86	0xbb84fe36	-0.0040586246
87	0x3b175cd1	0.0023096094
88	0xbc14b529	-0.009076395
89	0xbbd56932	-0.0065127844
90	0xbaed96a1	-0.0018126556
91	0xbc8d3c30	-0.017240614
92	0x3c052a22	0.008127721
93	0x3b1e0ab7	0.0024115273
94	0xba9b27de	-0.0011837443
95	0x3af930dd	0.0019011755
96	0x3b96981b	0.004595769
97	0xba80b2df	-0.0009818933
98	0xbc460495	-0.012086053
99	0x3cd47c60	0.025938213
100	0xbce6c129	-0.028168278
101	0xbcebc0b6	-0.028778415
102	0xba14b4cf	-0.00056726945
103	0x3c632c0f	0.013865485
104	0xbbef5bda	-0.0073046507
105	0xbbc6e49a	-0.006069732
106	0x3bec90cf	0.007219411
107	0xbc1019c8	-0.008795209
108	0x3bc6a0d7	0.006061654
109	0x3aa1084d	0.0012285799
110	0xbb1811f1	-0.0023204053
111	0x3b588743	0.0033039607
112	0xbbb4924e	-0.005510605
113	0x3c8319d9	0.016003536
114	0x3c190085	0.009338503
115	0x3cb6a145	0.022293696
116	0xbc648647	-0.01394803
117	0x3c2ef676	0.010678878
118	0x39c18e23	0.0003691773
119	0x3a5fed4a	0.0008542134
120	0x3c1c847c	0.009553071
121	0xbc479e81	-0.012183786
122	0xbb9cfed0	-0.004791118
123	0xbc34e56c	-0.011041027
124	0x3bafd8ee	0.005366436
125	0xba4f4775	-0.0007907071
126	0x3994b6f3	0.00028365068
127	0x3aa14341	0.0012303368
128	0x3c574249	0.013138362
129	0xbc4878a7	-0.012235797
130	0xbcfbda82	-0.030743841
131	0x3b211ef5	0.0024585102
132	0xbb0b8ebf	-0.00212948
133	0x3c4523d7	0.012032471
134	0xbc0acd83	-0.008471849
135	0xba5a21ef	-0.00083210965
136	0x3c86d2e5	0.016457984
137	0xbc092793	-0.008371252
138	0xba834f19	-0.001001808
139	0xbbc2f87d	-0.0059500323
140	0x3b312dec	0.0027035428
141	0x3ad2b461	0.0016075486
142	0xba2dc5d3	-0.00066289044
143	0xb7e3a52a	-2.713742e-05
144	0xbc123e59	-0.008925998
145	0xbd0bf1e1	-0.03416622
146	0xbba0617c	-0.0048944335
147	0xbb4446d8	-0.0029949453
148	0xbbd1182c	-0.0063810553
149	0x3c2bd841	0.010488571
150	0xbbb20182	-0.0054323087
151	0xbb9c1504	-0.0047632474
152	0xbba86161	-0.0051385616
153	0x3ba6266d	0.0050704987
154	0xbb93c332	-0.004509353
155	0xb9c0bd2a	-0.00036762032
156	0xbb62a5c8	-0.0034583677
157	0x3a20e249	0.0006137235
158	0xbba690cb	-0.0050831786
159	0x3a82fa7d	0.0009992864
160	0xbcd933b4	-0.026513912
161	0xbcccf3c7	-0.025018586
162	0x3c0b2670	0.008493051
163	0xbc449945	-0.011999433
164	0x3d002886	0.031288646
165	0xbbcb58f2	-0.0062056715
166	0xb99b801e	-0.0002965936
167	0x3c9e9ed2	0.01936284
168	0x3aacedec	0.0013193465
169	0xb9a5eb27	-0.00031646455
170	0x3b314e9c	0.0027054911
171	0x3ad44c05	0.0016196972
172	0x3a2a82bf	0.0006504468
173	0x399dd6b6	0.00030105346
174	0x39c915b8	0.0003835389
175	0x39d1c4e8	0.00040010293
176	0xbcc121f2	-0.023575757
177	0xbb3c4ad1	-0.0028731117
178	0xbc311d7f	-0.010810255
179	0x3b5d45cf	0.0033763533
180	0xbc12e9a0	-0.008966833
181	0x38984e2d	7.262486e-05
182	0x3c1a4f57	0.00941833
183	0x3b36b809	0.002788069
184	0xbbb14baf	-0.0054106335
185	0x3b20f7b7	0.0024561712
186	0xbb2ed96c	-0.0026679887
187	0x3d10c6b0	0.035345733
188	0xbb8b0f88	-0.004243795
189	0x3b21c63a	0.0024684803
190	0xbba5d7d6	-0.00506113
191	0xbb17c2ad	-0.0023156807
192	0x3c08db9e	0.008353142
193	0x3bca316e	0.0061704433
194	0x3be04b63	0.0068449243
195	0x3bdd0f0c	0.0067461785
196	0xbc432b01	-0.011912108
197	0xbcd8d31f	-0.026467858
198	0xbc741070	-0.014896497
199	0x3bc02d96	0.0058648093
200	0x3c84e70c	0.016223453
201	0x3b59d33d	0.003323748
202	0xbc7f7e13	-0.015594023
203	0xbcfa4e07	-0.030554784
204	0x3bc564a9	0.0060239625
205	0x3b524009	0.0032081625
206	0x3b7f281e	0.0038933824
207	0x3b57436f	0.003284659
208	0x398a2b93	0.00026353876
209	0x3bcdd4d6	0.0062814755
210	0x3c5bdd6c	0.01341949
211	0x3ba9c849	0.0051813466
212	0xbbe1340f	-0.006872661
213	0xbb1872bd	-0.0023261749
214	0xbbf1f1ec	-0.0073835757
215	0x3b30ef4d	0.0026998103
216	0x3d0feb08	0.035136253
217	0xbc65c985	-0.014025097
218	0x3d374ae1	0.044749144
219	0x3b5b9e3e	0.0033511068
220	0x3b38c09a	0.0028190971
221	0xba26fa8e	-0.0006369733
222	0xba8301cf	-0.0009995046
223	0x38cc1566	9.731464e-05
224	0xbc15f4b5	-0.009152581
225	0x3be21ba9	0.00690027
226	0x3ca35e77	0.019942505
227	0x3bd9b781	0.00664419
228	0xbb9e52e7	-0.00483166
229	0xbbb40980	-0.0054942966
230	0x3baeaf0f	0.005330927
231	0xbc43821a	-0.011932874
232	0xbc25e640	-0.010125697
233	0xbb965d1b	-0.0045887358
234	0x39ad016f	0.000329982
235	0xbc9d3269	-0.019189076
236	0x3ac9f9dd	0.0015409548
237	0x3a147669	0.00056633964
238	0x3ab07317	0.0013462034
239	0x39070214	0.00012875377
240	0x3c429221	0.01187566
241	0xbac56a6e	-0.0015061626
242	0x3c302fc9	0.01075358
243	0x3c169414	0.009190578
244	0xbb2efc6a	-0.0026700743
245	0xbb913a03	-0.0044319644
246	0xbc1bba4f	-0.009504869
247	0x3bb7ce0e	0.0056092804
248	0x3b29e251	0.0025922249
249	0xbc57803c	-0.013153132
250	0xbc72d72a	-0.014821807
251	0xbc688996	-0.014192959
252	0x3aa4e8dc	0.0012581605
253	0xbb424d5b	-0.0029648158
254	0xbbc8c913	-0.0061274855
255	0x3a35a520	0.00069292076

main.initial:128:batchnorm.weight f4 [128]
0	0x3f8291a3	1.0200695
1	0x3f80db03	1.0066837
2	0x3f79542a	0.9739405
3	0x3f8aef71	1.0854322
4	0x3f8f0c9b	1.1175722
5	0x3f7fc260	0.9990597
6	0x3f7e2c0b	0.99285954
7	0x3f7fc3cd	0.99908143
8	0x3f82568e	1.0182664
9	0x3f7781e2	0.9668256
10	0x3f861121	1.0473977
11	0x3f775cd4	0.9662602
12	0x3f803c8c	1.0018477
13	0x3f8ba975	1.0911089
14	0x3f752723	0.9576284
15	0x3f84e59a	1.0382569
16	0x3f8d7b80	1.1053314
17	0x3f83ebe7	1.0306367
18	0x3f89d54c	1.0768218
19	0x3f77d1a1	0.96804243
20	0x3f82ee51	1.0228978
21	0x3f816b09	1.011079
22	0x3f7c84ab	0.98639935
23	0x3f7e2f6f	0.9929113
24	0x3f859324	1.0435529
25	0x3f6976c2	0.91196835
26	0x3f7e7894	0.9940274
27	0x3f83fec7	1.0312127
28	0x3f7dcf4d	0.9914444
29	0x3f8d8186	1.1055152
30	0x3f7fa583	0.99861926
31	0x3f88e41f	1.0694617
32	0x3f83ea9c	1.0305972
33	0x3f78bd59	0.9716392
34	0x3f804ecc	1.0024047
35	0x3f6ddc3b	0.9291417
36	0x3f6a5495	0.9153531
37	0x3f7e0c38	0.99237394
38	0x3f807d2d	1.0038201
39	0x3f845467	1.0338258
40	0x3f7a6aea	0.9781939
41	0x3f805eb0	1.0028896
42	0x3f79045f	0.97272295
43	0x3f75025e	0.9570674
44	0x3f7d31c5	0.9890407
45	0x3f7c104b	0.9846236
46	0x3f8fd410	1.1236591
47	0x3f8ef0b1	1.1167203
48	0x3f855b14	1.041842
49	0x3f83396d	1.02519
50	0x3f6ad11c	0.91725326
51	0x3f63d030	0.88989544
52	0x3f93c503	1.1544498
53	0x3f865d94	1.0497308
54	0x3f8d27f9	1.1027824
55	0x3f915511	1.1354085
56	0x3f8542ac	1.0410972
57	0x3f723abe	0.94620883
58	0x3f86fac6	1.054528
59	0x3f7c98c2	0.9867059
60	0x3f849309	1.0357372
61	0x3f6e9b4a	0.932057
62	0x3f8461d5	1.0342356
63	0x3f7e3600	0.9930115
64	0x3f8446b4	1.0334077
65	0x3f8341de	1.0254476
66	0x3f7bd6b1	0.9837447
67	0x3f7ea7a8	0.99474573
68	0x3f833a95	1.0252253
69	0x3f78ae19	0.9714065
70	0x3f8cce5f	1.100048
71	0x3f84d1a6	1.037648
72	0x3f818948	1.012002
73	0x3f912d9d	1.1342045
74	0x3f7e1d9c	0.9926393
75	0x3f8801c5	1.062554
76	0x3f77f318	0.96855307
77	0x3f94fb84	1.1639256
78	0x3f86a085	1.0517737
79	0x3f871cc3	1.0555652
80	0x3f77b9e5	0.9676803
81	0x3f8f2f69	1.1186343
82	0x3f79cec5	0.9758113
83	0x3f92a1a6	1.1455581
84	0x3f80583e	1.0026929
85	0x3f5b56c1	0.8567925
86	0x3f87cdfd	1.0609738
87	0x3f81d4c4	1.0143056
88	0x3f84c2e3	1.0371975
89	0x3f83a024	1.0283246
90	0x3f8092bb	1.0044779
91	0x3f884d4f	1.0648593
92	0x3f682b01	0.9069062
93	0x3f8570a4	1.0425
94	0x3f8ad292	1.0845511
95	0x3f862f6c	1.0483222
96	0x3f82088a	1.0158856
97	0x3f838bc6	1.027703
98	0x3f80e1bb	1.0068887
99	0x3f7568cb	0.95863026
100	0x3f65e412	0.8980113
101	0x3f833a3e	1.0252149
102	0x3f84969a	1.035846
103	0x3f81585a	1.0105088
104	0x3f78070b	0.96885747
105	0x3f8c640d	1.0968033
106	0x3f842b7d	1.0325772
107	0x3f8b2acc	1.0872436
108	0x3f87cdee	1.060972
109	0x3f820f7f	1.0160979
110	0x3f88feeb	1.0702795
111	0x3f867c00	1.0506592
112	0x3f7ae7e4	0.98010087
113	0x3f87068c	1.0548873
114	0x3f807d10	1.0038166
115	0x3f751152	0.95729554
116	0x3f88ec0e	1.0697038
117	0x3f77832c	0.9668453
118	0x3f8682d2	1.0508673
119	0x3f7f213e	0.996601
120	0x3f81bb00	1.0135193
121	0x3f8615dc	1.0475421
122	0x3f6996ec	0.91245914
123	0x3f8663a8	1.0499163
124	0x3f826228	1.0186205
125	0x3f837a1e	1.0271642
126	0x3f89e0c9	1.0771724
127	0x3f7dd8ec	0.9915912

main.initial:128:batchnorm.bias f4 [128]
0	0xbeaa4098	-0.33252406
1	0x3e548860	0.20755148
2	0x3e94fe5f	0.2910032
3	0xbe4679b2	-0.1938236
4	0x3d1d4ebc	0.038405165
5	0x3e9a2b42	0.30111128
6	0x3e0f6c05	0.1400605
7	0xbc882e43	-0.016623622
8	0xbd015df7	-0.031583752
9	0x3e8326c4	0.25615513
10	0xbb4e49ca	-0.0031477087
11	0x3e75d9bc	0.2400884
12	0xbe47d036	-0.1951302
13	0xbafff411	-0.0019527694
14	0x3e9f3827	0.31097528
15	0x3e5c6e95	0.21526559
16	0xbdd11717	-0.10209482
17	0xbcbfd310	-0.023416072
18	0xbd70835d	-0.058719028
19	0x3eb9fd23	0.3632594
20	0x3eab1236	0.3341233
21	0xbd2517cc	-0.040305898
22	0x3e5312b3	0.20612602
23	0x3e085572	0.13313845
24	0xbe9af50e	-0.30265087
25	0x3eeea47e	0.46609873
26	0x3e33b82e	0.17550728
27	0xbcb38da7	-0.021918131
28	0x3de20c25	0.11037473
29	0xbe16492f	-0.14676355
30	0x3ee290a1	0.44250968
31	0x3e16a84e	0.1471264
32	0xbce08adc	-0.027409963
33	0x3e754611	0.2395251
34	0x3caae0c0	0.020859122
35	0x3ed99baa	0.42501575
36	0x3eb870a4	0.36023438
37	0x3e24c5ec	0.16091126
38	0x3d2df0aa	0.042465843
39	0xbe56297f	-0.20914267
40	0xbd1b3a27	-0.037897255
41	0x3d80fbf2	0.06298055
42	0x3e823ec3	0.25438508
43	0x3dffdd7b	0.12493416
44	0x3e9e6104	0.30933392
45	0x3e3c57de	0.18392894
46	0xbddbe1cc	-0.10736427
47	0xbdab7558	-0.08371991
48	0xbdfba28f	-0.12286865
49	0x3e561c8d	0.20909329
50	0x3ec9da12	0.39424187
51	0x3ef085a0	0.46976948
52	0xbe792b83	-0.24333005
53	0xbcf56b52	-0.0299584
54	0x3dcd2ccd	0.10018311
55	0xbdd581e3	-0.104251646
56	0x3db3dac9	0.08781964
57	0x3e39fddc	0.18163246
58	0xba8a30b3	-0.0010543078
59	0x3be619a7	0.007022101
60	0xbc268833	-0.010164308
61	0x3eb62fcc	0.3558334
62	0xbd43c463	-0.04779471
63	0x3d801dc8	0.0625568
64	0xbdd3f24a	-0.10348947
65	0x3d61bb04	0.055109993
66	0x3e2b5396	0.16731104
67	0x3e452cf4	0.1925543
68	0x3d191194	0.03737028
69	0x3e272327	0.16322003
70	0xbeba62bc	-0.36403453
71	0xbd6c23c2	-0.05765129
72	0x3e7d908a	0.24762169
73	0xbe33b77d	-0.17550464
74	0x3e86a3b8	0.26296782
75	0xbe568976	-0.20950875
76	0x3de7cddc	0.113185614
77	0xbda25d49	-0.07927949
78	0xbd783087	-0.060593154
79	0xbdf8cfc8	-0.12149006
80	0x3e95090a	0.2910846
81	0xbc8f55f0	-0.017497033
82	0x3e41f3f6	0.1894072
83	0xbe7f5f64	-0.24938732
84	0xbe056032	-0.13024977
85	0x3eefc8f3	0.46833
86	0xbc237b84	-0.009978179
87	0xbc959095	-0.018257419
88	0xbe37cae4	-0.1794849
89	0xbc9ffced	-0.019529784
90	0xbc950422	-0.018190447
91	0xbe5dbd48	-0.21654236
92	0x3ebce0ee	0.36890358
93	0xbd2127c5	-0.039344568
94	0xbda5884b	-0.080826364
95	0x3e277ddb	0.16356604
96	0xbcfcad30	-0.030844301
97	0xbe7148ee	-0.23562977
98	0xbd3a48cb	-0.045479577
99	0x3eb98394	0.362332
100	0x3edc6401	0.43045047
101	0xbd1dfffe	-0.03857421
102	0xbda6f6b8	-0.081525266
103	0xbe2edb6b	-0.17075889
104	0x3ebfa492	0.37430245
105	0x3ecc21e7	0.39869615
106	0xbd18f237	-0.03734037
107	0xbdd6c684	-0.104870826
108	0xbd3a217f	-0.0454421
109	0xbe7d4816	-0.2473453
110	0xbe9c92f4	-0.30580866
111	0xbc7d34c4	-0.015454475
112	0x3e85f748	0.26165223
113	0xbae17041	-0.0017199592
114	0x3ed4cb04	0.4156114
115	0x3ed54678	0.41655326
116	0x3b918dcf	0.0044419537
117	0x3ead36d0	0.3383088
118	0xbdbe981f	-0.093063585
119	0x3d4222e0	0.04739654
120	0x3dbfc7b1	0.0936426
121	0xb9c843d2	-0.00038197503
122	0x3ea6c0ba	0.32568914
123	0xbc03579f	-0.008016496
124	0xbb89fb6e	-0.004210881
125	0x3e401ec3	0.18761735
126	0xbe25d5af	-0.16194795
127	0x3b8c564d	0.004282749

main.initial:128:batchnorm.running_mean f4 [128]
0	0x3a82a3c5	0.000996702
1	0x3a18ce68	0.0005829097
2	0xba949b1c	-0.001133773
3	0x3a9ec08d	0.0012111828
4	0x3a3b335d	0.00071411376
5	0x3a30ff98	0.00067519536
6	0x385b5762	5.229505e-05
7	0x39829cc8	0.00024912343
8	0x3aa273bb	0.001239411
9	0xb90fbe18	-0.00013708358
10	0x3a18a805	0.00058233767
11	0x39b5187e	0.00034541258
12	0x3a051b2f	0.0005077598
13	0xba46daea	-0.00075857213
14	0x39fa237e	0.0004771016
15	0xba1f0e12	-0.00060674653
16	0x39a83fa4	0.00032090873
17	0xbac2889c	-0.0014841738
18	0x3854ca83	5.0733343e-05
19	0x394c7a6d	0.00019500563
20	0xba6f8918	-0.0009137555
21	0xba506568	-0.0007949681
22	0xbaa5b2c9	-0.0012641783
23	0x3a0795dd	0.00051721727
24	0xbad6b238	-0.0016380018
25	0x3956ab16	0.00020472365
26	0x3a48e3fb	0.0007663366
27	0x3a537af7	0.00080673344
28	0x3a04f7f6	0.00050723494
29	0xba3ad2d2	-0.00071267516
30	0xba208c55	-0.0006124427
31	0x3a5f9da2	0.0008530264
32	0xba50cf39	-0.0007965449
33	0x3944c873	0.0001876669
34	0xb9dd3f20	-0.00042199437
35	0x3a1ffad7	0.00061027467
36	0xba5da99f	-0.00084557565
37	0xba866dee	-0.001025615
38	0x35e9a127	1.7406754e-06
39	0xba0ae13d	-0.00052978453
40	0xb9ce9603	-0.0003940315
41	0xb8c46021	-9.363914e-05
42	0x382fbf55	4.1901443e-05
43	0xba75cb44	-0.0009376297
44	0x3aaacf17	0.0013031688
45	0xb96bf22f	-0.00022501567
46	0xba30fde4	-0.00067517
47	0xba39fd6e	-0.0007094954
48	0xbabf2ac0	-0.0014584884
49	0xb9319750	-0.00016936404
50	0x3a1b0b34	0.000591445
51	0x3a4fcade	0.0007926653
52	0x3ad6b5bb	0.0016381064
53	0xbb1d5a31	-0.0024010057
54	0x3a339afe	0.0006851404
55	0xb947c952	-0.00019053117
56	0xba367ac3	-0.0006961042
57	0xbad41957	-0.0016181868
58	0x3aa536e2	0.0012604857
59	0x370a0f7f	8.229049e-06
60	0x3a41c588	0.00073918
61	0xbabb7fa3	-0.0014305006
62	0x3a7b9010	0.0009596357
63	0x39df3584	0.00042573747
64	0xbacd05c7	-0.001564198
65	0xbafb5ac5	-0.0019176832
66	0x3a4dfe99	0.00078580674
67	0x39c8f7db	0.0003833164
68	0x3a5aea1e	0.0008350926
69	0x39b0af4e	0.00033699948
70	0xb9e62c47	-0.00043902008
71	0xb87835c0	-5.9177866e-05
72	0x3a192570	0.00058420654
73	0x3abe530e	0.0014520602
74	0xb9e4710e	-0.0004357178
75	0x399ec91a	0.0003028594
76	0x39e9f7dc	0.00044625893
77	0xb978a912	-0.00023714107
78	0xbabacdac	-0.0014251969
79	0xba8d91f8	-0.0010800948
80	0x3a18267f	0.0005804076
81	0x3a060d48	0.00051136734
82	0xba14729e	-0.0005662831
83	0xba2ae0cd	-0.0006518483
84	0xbab5cdf1	-0.001387058
85	0xb83b3866	-4.46368e-05
86	0xba807e8f	-0.0009803342
87	0xba09ec35	-0.0005261333
88	0xb9ad65bd	-0.00033072932
89	0xba56bdec	-0.0008191753
90	0xb96dc455	-0.0002267522
91	0xba358221	-0.0006923993
92	0x392aa8bd	0.00016275323
93	0xb993ac9d	-0.00028166632
94	0x3943fd02	0.00018690902
95	0xb9a439c9	-0.0003132357
96	0xba331ff3	-0.0006833069
97	0xbaf495db	-0.0018660383
98	0x3a307a02	0.0006732048
99	0xb950a278	-0.0001989695
100	0xba130c99	-0.0005609482
101	0xba1150b9	-0.00055433396
102	0xb9de403a	-0.00042390992
103	0xba418ed7	-0.00073836505
104	0xb7cd26ba	-2.4455938e-05
105	0x397454af	0.000233012
106	0xb961ffcc	-0.00021552964
107	0xb931b232	-0.00016946418
108	0xbaab2a93	-0.0013058953
109	0xb8cf8c0d	-9.896616e-05
110	0x39df081f	0.00042539925
111	0x3a184d34	0.0005809844
112	0xba3345f1	-0.000683873
113	0xbac53403	-0.0015045408
114	0xb9db9a43	-0.0004188587
115	0x3a12d8c0	0.0005601756
116	0x3a447d85	0.00074955105
117	0xb98f0f0f	-0.00027286305
118	0xba8864b9	-0.0010405994
119	0x395f92a2	0.00021321562
120	0xba34e411	-0.00069004396
121	0xba309192	-0.0006735559
122	0xbac806f7	-0.0015260865
123	0xba3030ca	-0.00067211373
124	0x3a8cfeda	0.0010757104
125	0xba1b56ea	-0.0005925732
126	0x38e6947b	0.00010994911
127	0x3a2a47f5	0.0006495708

main.initial:128:batchnorm.running_var f4 [128]
0	0x3c36e5d8	0.011163197
1	0x3c5547e7	0.013017631
2	0x3c53f5f1	0.012937055
3	0x3c6e5500	0.014546633
4	0x3c496caa	0.012293974
5	0x3c4caa9d	0.012491849
6	0x3c529d68	0.012854911
7	0x3c606583	0.013696077
8	0x3c6efd4c	0.014586758
9	0x3c3acee9	0.01140187
10	0x3c69443f	0.014237463
11	0x3c4e640a	0.012597093
12	0x3c4bb4b9	0.012433224
13	0x3c4697bb	0.012121136
14	0x3c3418dd	0.010992256
15	0x3c3b89e2	0.011446448
16	0x3c581919	0.0131895775
17	0x3c67c212	0.014145391
18	0x3c5537e4	0.013013814
19	0x3c651270	0.013981447
20	0x3c3c1e45	0.011481826
21	0x3c393066	0.011303043
22	0x3c594813	0.013261813
23	0x3c38ce66	0.011279678
24	0x3c5cb98f	0.013471975
25	0x3c6151ca	0.01375241
26	0x3c5b4ee2	0.013385506
27	0x3c566501	0.013085605
28	0x3c623332	0.013806151
29	0x3c33ee0e	0.01098205
30	0x3c50e4f5	0.0127499
31	0x3c4ee876	0.012628665
32	0x3c53e7dd	0.0129336985
33	0x3c53a20d	0.012917054
34	0x3c3ecdad	0.011645717
35	0x3c373810	0.0111828
36	0x3c764de1	0.015033216
37	0x3c44c970	0.012010917
38	0x3c5c4315	0.013443728
39	0x3c534973	0.01289593
40	0x3c50d98e	0.012747182
41	0x3c54dfba	0.012992794
42	0x3c50c6df	0.012742727
43	0x3c4bb57f	0.012433409
44	0x3c5f3979	0.013624542
45	0x3c4de8da	0.012567723
46	0x3c4ee8b9	0.012628728
47	0x3c4afe04	0.012389664
48	0x3c47fc3e	0.012206135
49	0x3c4df190	0.0125698
50	0x3c617eba	0.013763124
51	0x3c6bad4f	0.014384582
52	0x3c5c4cf2	0.01344608
53	0x3c5c9541	0.013463319
54	0x3c42950b	0.011876355
55	0x3c4e4a84	0.012591008
56	0x3c6c0695	0.014405866
57	0x3c5355e8	0.0128989
58	0x3c420780	0.011842608
59	0x3c521b0c	0.012823831
60	0x3c472420	0.012154609
61	0x3c3e00d6	0.011596879
62	0x3c41ecaf	0.011836215
63	0x3c4743b4	0.012162138
64	0x3c4b917c	0.012424823
65	0x3c48d777	0.012258402
66	0x3c55d796	0.013051888
67	0x3c418212	0.011810796
68	0x3c48a072	0.012245284
69	0x3c53abcc	0.012919378
70	0x3c515258	0.01277598
71	0x3c4e0551	0.01257451
72	0x3c59190e	0.013250602
73	0x3c4e2818	0.012582801
74	0x3c4b2eff	0.012401341
75	0x3c47ea63	0.012201878
76	0x3c59c3c2	0.013291301
77	0x3c437a26	0.011930978
78	0x3c3de410	0.011590019
79	0x3c59e92e	0.013300223
80	0x3c3b11a3	0.011417779
81	0x3c465a3c	0.0121064745
82	0x3c4cf65b	0.012509908
83	0x3c3dff7c	0.011596557
84	0x3c3ed06a	0.0116463695
85	0x3c58d20b	0.013233672
86	0x3c36209b	0.011116172
87	0x3c574cd5	0.013140877
88	0x3c3214a7	0.010869182
89	0x3c474fed	0.012165052
90	0x3c4a1172	0.012333261
91	0x3c548ccb	0.012973021
92	0x3c5344d0	0.012894824
93	0x3c4b516e	0.012409551
94	0x3c640ff3	0.013919818
95	0x3c57b396	0.013165375
96	0x3c51730d	0.012783778
97	0x3c46875c	0.012117233
98	0x3c526557	0.012841544
99	0x3c4a8cd5	0.012362679
100	0x3c46ac53	0.012126046
101	0x3c666777	0.014062754
102	0x3c5f783f	0.013639509
103	0x3c64790d	0.013944876
104	0x3c367583	0.011136415
105	0x3c64fcef	0.01397632
106	0x3c62d02e	0.013843579
107	0x3c54c395	0.0129860835
108	0x3c68bf17	0.014205716
109	0x3c445089	0.011982092
110	0x3c45e397	0.012078187
111	0x3c5f1671	0.01361619
112	0x3c6b3a09	0.014357098
113	0x3c58772b	0.013212006
114	0x3c5880bf	0.013214289
115	0x3c47bc23	0.012190851
116	0x3c6afcdc	0.014342513
117	0x3c53b168	0.012920715
118	0x3c36ea6c	0.011164289
119	0x3c6716df	0.014104574
120	0x3c50751e	0.012723235
121	0x3c700c49	0.0146513665
122	0x3c5b897f	0.013399481
123	0x3c66bdeb	0.014083366
124	0x3c2d318d	0.010570896
125	0x3c5a6524	0.013329778
126	0x3c4d7bca	0.012541721
127	0x3c370da3	0.011172685

main.pyramid:128-64:convt.weight f4 [128, 64, 4, 4]
0	0xbbd29aba	-0.0064271362
1	0xbcb6d97b	-0.0223205
2	0xbcf60bb4	-0.030034877
3	0xbca2e613	-0.019885099
4	0x3d798399	0.060916517
5	0x3ce86f49	0.028373377
6	0x3a66cad8	0.000880403
7	0xbbc2e839	-0.0059480933
8	0xbca25fe3	-0.019821113
9	0xbc4d6a74	-0.012537587
10	0xbcebe900	-0.028797626
11	0xbc9de16f	-0.019272534
12	0xbcd68d49	-0.026190417
13	0xbc8a5ffb	-0.01689147
14	0xbcdbfa1e	-0.026852664
15	0x3a5aeacd	0.0008351028
16	0xbd33edf3	-0.043928098
17	0x3c89f999	0.01684265
18	0x3bf6339b	0.007513476
19	0x3bc581dd	0.006027444
20	0x3badb5f3	0.005301231
21	0x3d489be9	0.048976813
22	0xbd0223e4	-0.03177251
23	0x3ce25319	0.027627515
24	0x3c4dbad3	0.012556749
25	0x3cf83f28	0.030303553
26	0xbcb07db2	-0.021544311
27	0xbca281c9	-0.019837277
28	0x3c26f54b	0.010190318
29	0xbd2fb1c9	-0.04289416
30	0xbbb59508	-0.0055414476
31	0xbc7e82c0	-0.015534103
32	0x3c3ad6db	0.011403765
33	0x3b6eaf23	0.0036420308
34	0xbc8f0030	-0.017456144
35	0x3b99a6f9	0.004689094
36	0x3c973525	0.018457958
37	0xbd2b0f08	-0.04176238
38	0xbc850ca8	-0.016241387
39	0xbba33b95	-0.004981468
40	0xbc2997f3	-0.010351169
41	0xbd038581	-0.03210974
42	0xbb97a84b	-0.0046282164
43	0xbb11f2b3	-0.0022269904
44	0xbcc1605e	-0.023605522
45	0xbc962ecc	-0.018332861
46	0xbaaa6ef6	-0.001300304
47	0xbcabf718	-0.020991847
48	0xbc053e66	-0.008132553
49	0xbd0f3461	-0.03496206
50	0xbd1bab59	-0.038005207
51	0xbd8024c9	-0.06257016
52	0x3b5f6b62	0.0034091105
53	0xbc6cd4ef	-0.014455064
54	0xbbd65f6b	-0.0065421364
55	0xbcab3c03	-0.02090264
56	0xbc2ef2ae	-0.0106779765
57	0xbd1caecf	-0.038252648
58	0xbbe53c7e	-0.0069957366
59	0xba6470b3	-0.0008714303
60	0xbc5b5155	-0.01338609
61	0x3c8be612	0.01707748
62	0xbb79b7af	-0.0038103869
63	0x3c055472	0.008137809
64	0x3c2e9def	0.0106577715
65	0xbbb495a0	-0.0055110008
66	0xbc2eead9	-0.010676109
67	0xbc53df86	-0.01293171
68	0xbd011f6a	-0.0315241
69	0xbc407a82	-0.011747958
70	0xbb880470	-0.0041509196
71	0x3cded5aa	0.027201492
72	0xbb36486c	-0.0027814163
73	0xbcf32e5a	-0.029685188
74	0x3c993686	0.018702757
75	0xbbfa3a2c	-0.007636329
76	0x3b80696e	0.003918818
77	0x3c8ec66e	0.017428603
78	0xbc4956ef	-0.012288793
79	0x3ccb036e	0.024781909
80	0xbbfe440b	-0.007759576
81	0xbcb5a7cf	-0.022174744
82	0xbcb51ccd	-0.02210846
83	0xbcac2177	-0.021012051
84	0x3a814cdd	0.0009864826
85	0x3d91bcc1	0.0711608
86	0x3d01915f	0.031632777
87	0x3c1fa232	0.00974326
88	0x3bf7c391	0.007561155
89	0x3d25aaed	0.04044621
90	0xbc2ba874	-0.010477174
91	0x3d788f10	0.06068331
92	0xbcbca7da	-0.023029257
93	0x3c604ccb	0.013690184
94	0x3c48c98d	0.012255085
95	0x3cb938bf	0.022610066
96	0xbcf2f66e	-0.029658522
97	0xbd193399	-0.037402723
98	0xba0120c4	-0.0004925842
99	0x3b13d991	0.00225601
100	0xbbef5cb4	-0.0073047522
101	0x3cbad3cd	0.022806073
102	0xbc1e8c72	-0.009677039
103	0xbca6b976	-0.020352107
104	0xbcd4cc01	-0.025976183
105	0xbc41288a	-0.01178945
106	0xbc8a7923	-0.016903466
107	0x3bb7cb57	0.005608957
108	0xbcabfb89	-0.020993965
109	0xbd07357f	-0.033010002
110	0xbcb38fc4	-0.021919139
111	0x3b6a1b72	0.0035721925
112	0x3ca0f614	0.01964859
113	0x3c772438	0.015084319
114	0xbc16e857	-0.009210668
115	0xbcbb10f8	-0.02283524
116	0x3d2d6e5d	0.04234158
117	0x3bc9cb5a	0.0061582746
118	0x3cb44bef	0.022008864
119	0xb93c3f82	-0.00017952736
120	0x3d147ae6	0.036250018
121	0xbb46056c	-0.0030215634
122	0xbc1d9cf0	-0.009619936
123	0xbcf8f699	-0.030391024
124	0xbcb80675	-0.022464016
125	0x3d975d68	0.07390863
126	0xbcf2e411	-0.029649766
127	0xbe0aec9e	-0.13566825
128	0xbd25547b	-0.04036377
129	0xbd82894b	-0.06373843
130	0xbc26736f	-0.010159357
131	0xbce80e5c	-0.02832716
132	0xbb3a7f68	-0.0028457288
133	0xbd05f347	-0.03270271
134	0x3ca06fa7	0.01958449
135	0x3c44caa8	0.012011208
136	0x3d0b0bb5	0.03394671
137	0xbdd5209e	-0.10406612
138	0x3cfdbd41	0.030974032
139	0x3ce8bad2	0.028409395
140	0x3b4dcd39	0.003140284
141	0xba5fcfa4	-0.0008537716
142	0x3d64bfe3	0.05584706
143	0xbd2260f8	-0.039643258
144	0x3c809ec9	0.015700715
145	0xbd00144d	-0.03126936
146	0x3c235e4c	0.009971213
147	0xbbbfea10	-0.00585676
148	0xbc1547e4	-0.009111378
149	0xbd288129	-0.0411388
150	0xb9ba4e01	-0.00035534802
151	0x3ae96188	0.0017805556
152	0xbcbfa4e0	-0.023394048
153	0xbb4cc615	-0.0031245996
154	0x3bef579a	0.007304144
155	0x3c92a316	0.017900031
156	0xbcd226cf	-0.025653271
157	0xbca279c8	-0.01983346
158	0xbc214b03	-0.009844544
159	0x3c9ddefe	0.01927137
160	0xbb7f30d8	-0.0038939025
161	0xbc36620a	-0.011131773
162	0x3c44cad7	0.012011251
163	0x3bb7006c	0.005584767
164	0x3c4163fa	0.011803621
165	0x3d210ddc	0.039319858
166	0x3c400237	0.011719278
167	0x3d101499	0.035175893
168	0x3bb299a2	0.0054504434
169	0x3c3502f1	0.011048065
170	0x3a7010a6	0.0009157754
171	0xbc18f89b	-0.009336616
172	0x3ca7d76a	0.02048846
173	0xbc43ec9f	-0.01195827
174	0x3d19ae85	0.03751995
175	0xbc8d1818	-0.017223403
176	0xbd6eea06	-0.05832865
177	0xbd00ebda	-0.031474926
178	0xbd931c61	-0.07183147
179	0xbd95c820	-0.073135614
180	0xbd208fca	-0.039199628
181	0xbb761a71	-0.0037552381
182	0xbced0174	-0.028931357
183	0xbccf3232	-0.02529249
184	0xbc69162a	-0.014226476
185	0x3cf3102e	0.029670801
186	0x3c7c7e89	0.015411028
187	0x39c0c5de	0.00036768516
188	0x3d217c77	0.03942534
189	0x3d1069d8	0.03525719
190	0x3caa5a82	0.02079511
191	0x3d9b0fee	0.07571398
192	0x3d262449	0.040561948
193	0xbd7d5296	-0.06184634
194	0x3b7e5ef5	0.0038813923
195	0xbd0ecd57	-0.034863796
196	0xbd22d458	-0.039753288
197	0x3cb2f678	0.021846041
198	0xbc0b4210	-0.008499637
199	0xbcfe1cb6	-0.03101955
200	0xbb3335db	-0.0027345333
201	0xbd16fa20	-0.03685963
202	0xbbcc376a	-0.006232192
203	0xbd5cde0c	-0.053922698
204	0xbcbdf4f8	-0.0231881
205	0xbad521cc	-0.0016260683
206	0xbb8e9588	-0.0043513216
207	0x3c13c911	0.009020106
208	0x3b369ca0	0.0027864352
209	0x3c055120	0.0081370175
210	0x3bdea2a5	0.006794291
211	0xbbb6df0d	-0.005580789
212	0xbcd5cad2	-0.026097689
213	0x3b0c635b	0.0021421525
214	0x3a82a398	0.0009966968
215	0x3d23d22c	0.039995357
216	0x3c4889c7	0.01223988
217	0x3d000aea	0.03126041
218	0xbc63f8cc	-0.013914298
219	0x3cbd9372	0.023141596
220	0x3d17a2c0	0.037020445
221	0xbc0ab9da	-0.008467162
222	0x3c8ec43e	0.01742756
223	0xbd1bd1f5	-0.038042028
224	0x3ac31bb1	0.0014885572
225	0xbbb0cd9d	-0.0053956048
226	0xbcd1c274	-0.025605418
227	0xbaa3c235	-0.0012493791
228	0x3c438fd8	0.0119361505
229	0x3cf3b481	0.029749157
230	0xbcd41c56	-0.025892418
231	0x3d228f8d	0.039687682
232	0xbc372514	-0.011178274
233	0xbc9991ea	-0.018746335
234	0xbd082e5f	-0.033247348
235	0x3c794825	0.0152149545
236	0xbcf013e9	-0.029306369
237	0x3bf68694	0.007523367
238	0x3ba787c1	0.0051126187
239	0x3ca6b77d	0.020351166
240	0x3cc34f51	0.023841532
241	0xba894e18	-0.0010475544
242	0xbbffc8e9	-0.007805933
243	0xbb86d974	-0.004115278
244	0x3c1ed3c7	0.009694046
245	0x3a925a75	0.0011165874
246	0xbc431ef8	-0.011909239
247	0x3b834b6d	0.004006794
248	0xbb754b53	-0.003742893
249	0x3b19a8ba	0.0023446516
250	0xbc563e47	-0.0130763715
251	0xbdc59f24	-0.09649494
252	0xbca1ff69	-0.01977511
253	0xbc879c2b	-0.016553959
254	0x3cc43379	0.023950325
255	0xbd764f12	-0.060134

main.pyramid:64:batchnorm.weight f4 [64]
0	0x3f70a4ae	0.9400128
1	0x3f81bf74	1.0136552
2	0x3f7ecf73	0.9953529
3	0x3fa320a8	1.2744341
4	0x3f7c4a08	0.9855046
5	0x3f85b7fd	1.0446774
6	0x3f9af024	1.2104535
7	0x3f6a49c5	0.91518813
8	0x3f8783d5	1.0587107
9	0x3f768557	0.9629721
10	0x3f8b40b3	1.087912
11	0x3f8651ca	1.049371
12	0x3f859221	1.043522
13	0x3f774f3a	0.96605265
14	0x3f6f1c71	0.93402773
15	0x3f8f1f3e	1.1181409
16	0x3f80c130	1.0058956
17	0x3f744e46	0.95431936
18	0x3f800c02	1.0003664
19	0x3f82b502	1.0211489
20	0x3f7cc6e2	0.9874097
21	0x3f7891dd	0.9709757
22	0x3f85b4a5	1.0445753
23	0x3f82231f	1.0166968
24	0x3f738307	0.95121807
25	0x3f869d96	1.0516841
26	0x3f7036ed	0.9383381
27	0x3f8f1f58	1.118144
28	0x3f805405	1.0025641
29	0x3f7bc629	0.98349243
30	0x3f7d5dd2	0.98971283
31	0x3f782d52	0.96944153
32	0x3f9ed094	1.2407403
33	0x3f852944	1.0403218
34	0x3f7a1ace	0.9769715
35	0x3f7b8e5f	0.98264116
36	0x3f749f8a	0.9555594
37	0x3f8b7253	1.0894264
38	0x3f81e1f1	1.0147077
39	0x3f8d1a79	1.1023704
40	0x3f827579	1.01921
41	0x3f8b8fd7	1.0903271
42	0x3f7c3728	0.9852166
43	0x3f7edd67	0.99556583
44	0x3f8a70a9	1.0815631
45	0x3f844c2b	1.0335745
46	0x3f7775d8	0.9666419
47	0x3f836887	1.0266274
48	0x3f83587d	1.026138
49	0x3f7bcfdf	0.9836406
50	0x3f83ca51	1.0296117
51	0x3f7894eb	0.9710223
52	0x3f7f66bc	0.99766135
53	0x3f8f7786	1.1208351
54	0x3f7d2cf1	0.988967
55	0x3fbf8aff	1.4964293
56	0x3f78a18f	0.9712152
57	0x3f7be577	0.9839701
58	0x3f6ef940	0.93349075
59	0x3fb44ccf	1.408594
60	0x3f835012	1.025881
61	0x3f7b4f54	0.9816792
62	0x3f7ecad9	0.9952827
63	0x3f815087	1.01027

main.pyramid:64:batchnorm.bias f4 [64]
0	0xbd060483	-0.032719146
1	0xbb4f4ee5	-0.0031632718
2	0xbc021cac	-0.007941406
3	0x3db3bb79	0.08775992
4	0x3c781678	0.015142076
5	0x3cf89369	0.030343728
6	0x3c7545cd	0.014970255
7	0x3d5210b3	0.051285457
8	0x3cf27b89	0.029599922
9	0x3d19c0c6	0.03753736
10	0xbba2f66e	-0.0049732244
11	0x3da275de	0.07932638
12	0xbc5eb105	-0.013592009
13	0xbd2ac648	-0.041693002
14	0xbb293ae5	-0.0025822457
15	0x3daa6e61	0.08321834
16	0x3ca0eea1	0.019645037
17	0x3c9b91e4	0.018990465
18	0x3d1085d0	0.035283864
19	0x3cbafa18	0.022824332
20	0x3cf7e938	0.030262575
21	0x3c8b2861	0.016987028
22	0x3db43d1c	0.08800718
23	0x3caf275d	0.021381075
24	0x3d322e4f	0.043501195
25	0x3d244f79	0.040114854
26	0x3bf65c07	0.0075182947
27	0x3d01a735	0.0316536
28	0x3d49910a	0.049210586
29	0xbc321a3d	-0.0108705135
30	0x3da701e9	0.08154661
31	0x3ca2851d	0.019838864
32	0x3d24f3ae	0.040271454
33	0x3d8aae2e	0.067715034
34	0x3cd3cda2	0.02585489
35	0x3da1ed2b	0.07906564
36	0x3d877f43	0.0661607
37	0x3c3bb448	0.011456557
38	0x3d941fd9	0.07232637
39	0x3e319ad6	0.17344221
40	0xbb9f6563	-0.004864381
41	0x3e401ed2	0.18761757
42	0xbb7619ed	-0.0037552074
43	0x3bae8667	0.0053260806
44	0x3dc2e185	0.09515671
45	0x3d6d7e2d	0.05798166
46	0x3dd47793	0.103743695
47	0xbcaa735d	-0.020806963
48	0x3d3b9032	0.045791812
49	0x3c7a4877	0.015276066
50	0x3cc89efa	0.024489868
51	0x3cde3d12	0.02712873
52	0x3de28109	0.11059768
53	0x3dad820a	0.084720686
54	0x3cf2a132	0.02961788
55	0xbce7be39	-0.028288947
56	0xbc0a3a68	-0.008436777
57	0x3d8d7e63	0.06908872
58	0x3e05a8d1	0.1305268
59	0x3cb65adc	0.022260122
60	0x3c79417a	0.015213365
61	0x3d8c4d67	0.06850701
62	0x3bdc4f8c	0.00672335
63	0x3d92e644	0.07172826

main.pyramid:64:batchnorm.running_mean f4 [64]
0	0xbdb71056	-0.08938663
1	0x3d4499dc	0.047998294
2	0xbd1bbe25	-0.038023133
3	0xbd570732	-0.052497096
4	0x3d6819b0	0.056665123
5	0xbca46bd8	-0.020070955
6	0xbe0accc5	-0.13554676
7	0xbcbde573	-0.023180699
8	0xbdad9ac6	-0.08476786
9	0xbe30e566	-0.17275009
10	0xbe27eb2d	-0.16398306
11	0x3e2fc75a	0.1716589
12	0xbdd303e5	-0.10303477
13	0x3cc3a2f9	0.023881422
14	0xbe475459	-0.1946577
15	0x3a7be3d8	0.00096088415
16	0xbdbb3c90	-0.09142411
17	0xbb139cca	-0.0022523873
18	0x3c1ba462	0.009499641
19	0x3b0865fa	0.0020812736
20	0x3b87e365	0.0041469806
21	0xbdd62028	-0.10455352
22	0xbdfa31eb	-0.12216552
23	0x3d364f60	0.04450929
24	0x3d78997a	0.06069324
25	0x3b91a7a4	0.004445033
26	0x3de68cfe	0.11257361
27	0xbb574fc7	-0.0032853947
28	0xbdbf537c	-0.09342095
29	0xbdb96e3f	-0.09054231
30	0x3e447867	0.19186555
31	0x3d9b5dec	0.075862736
32	0xbe6017e2	-0.2188411
33	0xbd795c0f	-0.06087881
34	0xbd32da4d	-0.04366522
35	0x3d5607ff	0.05225372
36	0x3e723efe	0.23656842
37	0x3b218c2f	0.0024650206
38	0xbad7e1d7	-0.0016470504
39	0x3d8121b7	0.06305259
40	0x3e3ec914	0.18631393
41	0xbd735df6	-0.05941578
42	0x3d97dfa8	0.07415706
43	0xbd00ef5a	-0.031478263
44	0xbe2b5ccc	-0.16734618
45	0xbdbf9c3f	-0.093559735
46	0x3d930bfa	0.07180019
47	0xbe36095b	-0.17777006
48	0xbd9d706c	-0.076874584
49	0xbc3c2a79	-0.011484736
50	0xbe54d827	-0.2078558
51	0xbe135122	-0.14386418
52	0xbd91c85b	-0.07118293
53	0x3c94ed10	0.018179446
54	0xbd4c01a9	-0.04980627
55	0x3c8e0945	0.017338404
56	0x3c24f618	0.010068439
57	0xbd90f367	-0.07077675
58	0xbd189cf5	-0.03725906
59	0xbc8e4c38	-0.017370328
60	0xbe853f44	-0.2602483
61	0x3e464a08	0.19364178
62	0x3cbe6031	0.023239227
63	0xbe54bb3c	-0.20774549

main.pyramid:64:batchnorm.running_var f4 [64]
0	0x3d9114ba	0.070840314
1	0x3d8af624	0.06785229
2	0x3d94d3d9	0.07266969
3	0x3d8f6539	0.070017286
4	0x3d7c4ab8	0.061594695
5	0x3d76ae13	0.060224604
6	0x3d8f048f	0.06983291
7	0x3de1cd51	0.11025489
8	0x3dcc060b	0.0996209
9	0x3db191d5	0.086703934
10	0x3d89e4a0	0.0673306
11	0x3d79bc74	0.06097074
12	0x3dd6b139	0.10483021
13	0x3d823bc1	0.063590534
14	0x3da96d48	0.08272797
15	0x3d6fbc5d	0.058529247
16	0x3d7e6376	0.062106572
17	0x3d8a9367	0.06766396
18	0x3d85c5ea	0.0653189
19	0x3d80af92	0.062834874
20	0x3d8c9361	0.06864048
21	0x3d94b558	0.07261151
22	0x3db187c4	0.08668473
23	0x3d83c6a4	0.06434372
24	0x3d7d991c	0.061913595
25	0x3dab7a52	0.0837294
26	0x3d7aa223	0.061189782
27	0x3d935a3b	0.071949445
28	0x3d8dddf6	0.06927101
29	0x3d9c6cba	0.076379254
30	0x3d7f4b60	0.062327743
31	0x3d875d0d	0.06609545
32	0x3d9df146	0.07712035
33	0x3d7d8f5a	0.06190429
34	0x3d94c12c	0.07263407
35	0x3dabf9eb	0.083972774
36	0x3d893c67	0.06700974
37	0x3d851e42	0.06499912
38	0x3d6a4989	0.057199035
39	0x3d8e6a02	0.06953813
40	0x3d84140a	0.06449135
41	0x3d843cb8	0.06456894
42	0x3d7ba512	0.06143672
43	0x3d82ed42	0.063929096
44	0x3d9fab1c	0.077963084
45	0x3d9d2632	0.07673301
46	0x3d9da2c4	0.07697061
47	0x3dba684e	0.09101926
48	0x3dcd44de	0.10022901
49	0x3da5f9f2	0.08104314
50	0x3d98530f	0.07437717
51	0x3dae44bb	0.08509203
52	0x3d81f27a	0.06345077
53	0x3dad847d	0.08472536
54	0x3d84b439	0.06479687
55	0x3d764d5b	0.060132366
56	0x3d84bf05	0.064817466
57	0x3d8bfec4	0.06835702
58	0x3d8c9dc7	0.06866031
59	0x3d6dadcc	0.058027074
60	0x3daada31	0.08342398
61	0x3d924179	0.07141394
62	0x3dc738b7	0.097276144
63	0x3e7360e8	0.23767436

main.final:64-8:convt.weight f4 [64, 8, 4, 4]
0	0x3c87e758	0.016589805
1	0x3c8f1e94	0.017470635
2	0x3c2d02c7	0.010559744
3	0x3c526236	0.012840798
4	0x3c9447b7	0.018100603
5	0xbc3a69e0	-0.011377782
6	0xbaa4d17f	-0.0012574642
7	0x3ba8240a	0.0051312493
8	0xbc89a3e9	-0.016801791
9	0x3b2ece9e	0.0026673446
10	0xbcaecf82	-0.021339182
11	0x3be1eaaa	0.006894429
12	0x3c6bed3e	0.014399825
13	0xbc8e7e45	-0.017394194
14	0xbb8abab7	-0.004233684
15	0xbb38efbd	-0.0028219067
16	0x3c1d309e	0.009594111
17	0x3baff7e5	0.0053701275
18	0x3cae7b5d	0.021299059
19	0xbc04d4ed	-0.008107406
20	0x3c6008d5	0.013673981
21	0xbbf46138	-0.0074578784
22	0xbcb9becc	-0.022673987
23	0x3c04b8e4	0.008100722
24	0xbc221296	-0.009892127
25	0x3d0addce	0.033902936
26	0x3c0be66e	0.008538825
27	0x3c2d2596	0.010568043
28	0x3c10e531	0.008843706
29	0xbbeaddb4	-0.0071675424
30	0xbcb60915	-0.022221128
31	0x39f0f185	0.00045956313
32	0xbc57a89d	-0.013162759
33	0xbccb0fa9	-0.02478774
34	0xbcdc73d1	-0.026910694
35	0xbbc388f8	-0.0059672557
36	0x3c3e2526	0.011605537
37	0x3c0b8138	0.008514695
38	0xbcc2112c	-0.023689829
39	0xbc8baf8e	-0.017051484
40	0x3d08b84e	0.03337889
41	0x3a93b8fe	0.0011270342
42	0x3b2535de	0.002520911
43	0x3bca9caa	0.0061832266
44	0xba8b8970	-0.0010645818
45	0x3c2b3a5e	0.010450928
46	0x3c93a3fd	0.018022532
47	0x3cdb1315	0.026742497
48	0xbcb7a2e8	-0.022416547
49	0x3c2134dd	0.009839264
50	0x342851f5	1.5676035e-07
51	0x3ba68eac	0.005082926
52	0x3be8ad3e	0.00710073
53	0xbbc4d505	-0.006006839
54	0xbc59ee6b	-0.013301472
55	0x3943b92f	0.00018665635
56	0x3a1591a6	0.0005705602
57	0xbc50261d	-0.012704399
58	0x3cf3bc19	0.029752778
59	0xbc91492b	-0.017735085
60	0x3c158af4	0.009127367
61	0xbcb877a8	-0.022517994
62	0xbbdb1577	-0.0066859084
63	0xbc2647c5	-0.010148947
64	0xbc06a98f	-0.008219137
65	0x3a1e3a8a	0.00060359447
66	0x3c733c08	0.0148458555
67	0xbafd379d	-0.0019318942
68	0xbc10b526	-0.008832252
69	0xbd2a79a3	-0.041619908
70	0xbc9997f1	-0.01874921
71	0x3c4313f3	0.011906612
72	0x3b0b149f	0.0021222008
73	0xbb089651	-0.0020841549
74	0xbac675f1	-0.001514135
75	0x3cc042a3	0.023469275
76	0xbba85758	-0.0051373653
77	0x3d35ac76	0.044353925
78	0x3c3b479d	0.011430648
79	0x3b26c1cd	0.0025445104
80	0x3cb5486a	0.022129256
81	0x3c85492e	0.016270246
82	0xbb4aa148	-0.0030918885
83	0x3a1f795d	0.0006083453
84	0xbbe6851d	-0.0070349113
85	0xbbd9f78e	-0.0066518253
86	0x3cea67cc	0.028613947
87	0xbc3a652e	-0.011376662
88	0x3ca0aedd	0.019614631
89	0xbc0211af	-0.007938786
90	0xbc6b531e	-0.014363078
91	0x3c882e10	0.016623527
92	0x3a30b79b	0.00067412265
93	0x3b867aab	0.0041039786
94	0xbc7ef637	-0.015561632
95	0xbcbb7129	-0.022881107
96	0x3c0842fd	0.0083167525
97	0xbc7a89f9	-0.015291684
98	0x3be5aa3d	0.0070088194
99	0xbb895c31	-0.0041918983
100	0xbc8458e7	-0.016155673
101	0x3ab99a1e	0.001416031
102	0x3d0b87bd	0.034064997
103	0x3b5e87fb	0.0033955562
104	0xbc17529a	-0.009236002
105	0xbc054be6	-0.008135771
106	0x3a500fc4	0.00079369196
107	0xbc7d0b2e	-0.01544456
108	0xbd28ca79	-0.041208718
109	0x3cabd971	0.020977708
110	0x3c45dce5	0.012076591
111	0x3c071791	0.008245365
112	0x3ad23008	0.0016036043
113	0xbc4cb581	-0.012494446
114	0xbc0e0913	-0.008669156
115	0xbbff6df9	-0.007795092
116	0xbd24884d	-0.04016905
117	0x3d8c5035	0.06851236
118	0x3b9eba91	0.004844018
119	0x3b805642	0.0039165327
120	0xbd46d62e	-0.0485441
121	0xbd0a40ea	-0.033753313
122	0xbb9ec1f6	-0.0048448993
123	0xbcc5374b	-0.024074217
124	0x3d68321c	0.056688413
125	0xbd6419ec	-0.055688784
126	0x3caf3cc0	0.021391273
127	0xbcb330f7	-0.021873934
128	0x3c4984d1	0.012299732
129	0x3c3c504c	0.011493754
130	0x3cd712f2	0.026254151
131	0xbc3e4916	-0.011614105
132	0x3ca63ac9	0.020291703
133	0x3c815dba	0.015791763
134	0xbbbf263e	-0.0058334162
135	0xb93f168b	-0.00018223577
136	0x3cc91c9f	0.02454978
137	0xbc109df3	-0.0088267205
138	0x3c8395d6	0.016062658
139	0x3c2ac40d	0.010422719
140	0x3beee289	0.0072901887
141	0xbc4ec4b0	-0.012620136
142	0xbc9c0d33	-0.019049263
143	0xbc9bb983	-0.019009357
144	0xbc8b80cd	-0.01702919
145	0x3bf926df	0.0076035107
146	0xba832294	-0.0010004812
147	0x3d0d79a4	0.034539834
148	0x3c87ac0d	0.016561532
149	0x3b44c8bf	0.003002688
150	0xb80bedb8	-3.3361575e-05
151	0x3c91da0a	0.017804164
152	0xba49fdee	-0.000770538
153	0x3b8a3a99	0.004218411
154	0x3c4115c8	0.011784978
155	0x3c48b3f2	0.012249934
156	0xbcd792dc	-0.026315145
157	0x3b22a856	0.0024819574
158	0x3c14508e	0.009052409
159	0xbc4f5040	-0.01265341
160	0x3c82939c	0.015939526
161	0xbcc35d76	-0.023848277
162	0x3c6bb336	0.014385989
163	0xbcc9526f	-0.02457544
164	0x3c443253	0.011974889
165	0xbd0ebd88	-0.03484872
166	0x3a8c92e8	0.0010724934
167	0xbb537a3f	-0.003226891
168	0x3c1513db	0.009098972
169	0xbb4ea2ee	-0.003153022
170	0xbd42531e	-0.047442548
171	0xbcab2863	-0.020893281
172	0xbc026e3d	-0.007960853
173	0xbba62d22	-0.005071298
174	0xbd3c1c3c	-0.045925364
175	0xbe1507e1	-0.14553787
176	0x3a12146e	0.0005572502
177	0x3b736e8a	0.0037144744
178	0x3a8cde71	0.0010747445
179	0x39206b93	0.00015298864
180	0x3abd0b2f	0.0014422889
181	0x39d276d8	0.00040142867
182	0x3bd19c7d	0.0063968287
183	0x3bf382ca	0.0074313628
184	0xb8b1992c	-8.468548e-05
185	0xbca995ee	-0.020701375
186	0xbbec065a	-0.0072029056
187	0x3d048576	0.03235384
188	0x3b907dd0	0.0044095293
189	0x3c56f64a	0.013120243
190	0x3bf29650	0.0074031726
191	0x3c8112aa	0.01575597
192	0xba4fff12	-0.0007934432
193	0xba962dbf	-0.0011457725
194	0xbb90a738	-0.0044144653
195	0x3c8af724	0.016963549
196	0xbc7c5d7c	-0.015403148
197	0x3c352034	0.011055041
198	0x3c059d71	0.008155213
199	0xbcca653c	-0.024706475
200	0x3c2ef08a	0.010677466
201	0xbc534b2e	-0.012896342
202	0x3cb7e17c	0.022446387
203	0xbb85927a	-0.0040762993
204	0xb9901460	-0.00027481
205	0x3d29eed5	0.041487534
206	0xbc820dec	-0.01587578
207	0x3d0b8add	0.034067977
208	0xb94b3cd8	-0.00019382255
209	0xbc27410c	-0.0102083795
210	0xbc54165a	-0.012944782
211	0xbc0f98b8	-0.008764438
212	0xbc5de7c1	-0.013544024
213	0x3ac298ab	0.0014846524
214	0xbbd60b80	-0.0065321326
215	0x3b70b348	0.0036727954
216	0xbc3c9285	-0.011509542
217	0x3cd3f5f5	0.025874117
218	0xbb8df027	-0.004331607
219	0x3ccbdef3	0.024886584
220	0xba103cc6	-0.000550222
221	0xbce3bae7	-0.027799083
222	0x3c7a12ea	0.0152632985
223	0x3d8bd25a	0.06827231
224	0xbd3c09b8	-0.045907706
225	0xbbb0b6f9	-0.005392906
226	0xbc891a2f	-0.016736118
227	0x3b8abee7	0.004234183
228	0xbb81c210	-0.0039599016
229	0x3b30c3fc	0.0026972285
230	0xba2ebc51	-0.00066656346
231	0xbbb34850	-0.005471267
232	0xbcf68636	-0.030093294
233	0x3bccfd78	0.0062558018
234	0xbc436a90	-0.011927262
235	0xbc43a6f6	-0.011941662
236	0x3c595b23	0.013266358
237	0xbc5a67e9	-0.013330438
238	0x3d0c29da	0.0342196
239	0x3ce0cb07	0.027440561
240	0x3d502c9b	0.05082379
241	0x3c158437	0.009125761
242	0x3caf1c1b	0.021375706
243	0xbc4bc1d2	-0.012436347
244	0xbae24734	-0.0017263652
245	0x3c5fe22d	0.013664764
246	0x3c62f364	0.013851974
247	0xbc1ffd90	-0.009765044
248	0x3b6eece7	0.0036457123
249	0x3ccd0ce5	0.025030563
250	0x3d0cad1a	0.03434477
251	0xbd1d3db4	-0.038388923
252	0xbb8c4fa6	-0.004281956
253	0x3c3f45fb	0.0116743995
254	0xbc690557	-0.0142224645
255	0x3b8e8d5f	0.004350349
